Output/test/model.pt (torch, 148054 bytes, 64 tensors)

embedder.emb_rnn.weight_ih_l0 f4 [60, 1]
-0.16057618 -0.27335337 -0.20022033 -0.20174241 -0.24274743 -0.096356496 -0.103991896 0.020120889
0.10960784 0.19564606 -0.21774408 -0.2075432 -0.10695713 -0.20009962 0.030029342 -0.26765487
-0.009568059 -0.07253244 -0.26040483 -0.15102284 0.12357475 -0.083932854 -0.24526659 0.24822374
-0.10880863 0.012264202 0.24578811 0.15082271 -0.26185125 0.27196655 -0.08034467 0.09652586
0.11721237 0.13981381 0.20052928 -0.1095968 0.26164985 0.16844487 -0.29374576 -0.13844974
0.28914705 -0.22745198 -0.271604 0.16183479 0.12349672 0.051201377 0.26726767 0.037990574
0.32676432 -0.21372311 -0.28051442 -0.05131891 0.33380923 -0.23783685 0.14291683 0.04812697
-0.10948589 -0.28718346 0.11403745 0.108748615
00000000: 156e 24be f9f4 8bbe 8f06 4dbe 9095 4ebe
00000010: c892 78be 8e56 c5bd b4f9 d4bd 90d4 a43c
00000020: 137a e03d 7157 483e 4ef8 5ebe 3486 54be
00000030: 570c dbbd eae6 4cbe 1800 f63c 0f0a 89be
00000040: 59c3 1cbc e38b 94bd c853 85be bba5 1abe
00000050: c214 fd3d fde4 abbd 2a27 7bbe 5d2e 7e3e
00000060: 0fd7 debd cbef 483c e1af 7b3e 4571 1a3e
00000070: 5e11 86be 333f 8b3e bf8b a4bd 5aaf c53d
00000080: 0a0d f03d 5a2b 0f3e 8c57 4d3e 4974 e0bd
00000090: f8f6 853e d07c 2c3e d865 96be c5c5 0dbe
000000a0: 150b 943e 2ce9 68be ae0f 8bbe 05b8 253e
000000b0: d9eb fc3d 89b8 513d 4fd7 883e 019c 1b3d
000000c0: a74d a73e 3bda 5abe 969f 8fbe c733 52bd
000000d0: 0be9 aa3e 818b 73be ca58 123e c920 453d
000000e0: 233a e0bd b609 93be 778c e93d 98b7 de3d

embedder.emb_rnn.weight_hh_l0 f4 [60, 20]
-0.08960392 0.14235112 0.25403735 0.0052889823 0.13963613 -0.07667867 0.14950353 0.07287896
-0.05158098 0.17385858 0.022142617 0.072148755 0.10285379 0.12925968 0.093514085 0.12342547
-0.05164463 -0.13828094 -0.23805106 -0.090064906 0.29198292 -0.057615526 0.08167863 -0.15652311
0.037808064 0.036919918 0.096788816 0.06057249 -0.021900028 0.16206215 0.15550373 0.20463605
-0.10233408 -0.045161966 -0.05173607 -0.107209556 -0.089325294 -0.026286243 -0.0101873735 -0.20931901
0.12824479 -0.16200447 -0.054621097 0.0389895 -0.03480606 -0.17371637 0.076638944 0.15889858
-0.05221756 0.07850867 -0.044294845 0.11468412 0.014849533 0.1221965 0.21560194 0.09327414
0.24798094 -0.027697407 0.04396827 0.13256186 -0.13071154 -0.07136275 -0.11988227 0.120410234
0.16006885 -0.11163789 -0.051918626 -0.1935559 -0.06591195 0.10437864 0.29799065 -0.023905847
-0.22972107 0.049631782 0.009051365 -0.23433886 -0.09129869 0.2424722 -0.086905606 -0.0972196
-0.07200711 0.17350662 -0.1442134 -0.15098509 -0.1277767 -0.14136663 0.122002415 0.32164425
0.06561311 -0.02481093 0.031123694 -0.20340043 -0.08369288 0.06363731 0.054191582 0.08606273
-0.074158266 -0.08137346 0.0492852 0.06256915 -0.015312972 -0.08186206 0.039924193 0.10661833
-0.04576645 0.18326578 -0.17016275 -0.1056083 -0.074500576 0.10388199 -0.11918422 0.028695228
0.22055213 0.12442919 0.12762737 -0.14674737 -0.07905671 -0.07624745 0.10169535 0.13710386
0.014430269 -0.040337726 -0.17574228 -0.015987366 4.2376392e-05 -0.16976112 0.14457071 -0.010911383
0.13472377 0.07893367 -0.06164526 0.20563112 0.16884398 -0.056285184 0.066526204 0.12658675
-0.07830714 -0.016389048 -0.056749713 0.0050130715 -0.050696682 -0.20980954 0.024379583 -0.082340635
0.21184681 0.01867213 -0.2241807 -0.023112634 -0.0054574786 0.013591242 0.028877782 0.020356288
-0.064793006 0.047596224 0.036330655 0.15186732 0.1555146 -0.07185464 -0.14531155 -0.06659876
-0.0064453995 0.01753287 -0.07449596 0.24420775 0.1318059 0.044233087 -0.008481212 0.12726882
0.18065138 -0.002500584 0.022539547 -0.007493751 0.062578894 0.1348445 -0.033501014 -0.06568736
0.1284786 -0.15317586 0.008817042 -0.0950225 0.06445708 0.047810692 -0.08703036 -0.03545645
-0.08981602 -0.14730594 0.03500008 0.0360314 0.30422875 -0.029720904 0.11922142 0.08226328
0.036630224 -0.086232066 0.03795667 -0.08592446 0.13116379 0.13073835 -0.07181637 0.009720032
0.14710319 -0.14744917 0.13639475 0.13739388 -0.006279042 0.11094831 0.008500423 0.12234137
0.06724146 0.29713598 -0.068134464 0.10282199 0.009330273 -0.14521255 -0.22121136 0.074627765
-0.11655102 0.05618699 -0.12306987 0.005941918 -0.21012452 0.1336612 0.20091598 0.0016062976
-0.15765205 -0.0052385675 -0.01913509 -0.008135097 0.14976503 0.012703341 -0.036318954 0.10899002
-0.1151709 -0.0032925203 0.01924148 -0.24230291 0.10437609 0.17078625 0.024600254 -0.2892325
-0.11748846 -0.15246442 0.3297684 -0.06185604 -0.1289777 -0.006219411 0.104795426 -0.007555954
0.068168886 -0.002257887 0.031320106 -0.00058309856 0.1280119 0.1431973 0.1879255 -0.22865131
00000000: 4382 b7bd 7ec4 113e 2f11 823e 334f ad3b
00000010: c6fc 0e3e b509 9dbd 7417 193e 9041 953d
00000020: 9446 53bd fc07 323e 6f64 b53c bac2 933d
00000030: 02a5 d23d a65c 043e 5084 bf3d 7ec6 fc3d
00000040: 5289 53bd 8599 0dbe a8c3 73be f373 b8bd
00000050: c97e 953e 42fe 6bbd 2047 a73d 9847 20be
00000060: a1dc 1a3d 5739 173d 3739 c63d dc1a 783d
00000070: b067 b3bc 9ff3 253e 5f3c 1f3e 1d8c 513e
00000080: 8894 d1bd c1fb 38bd 34e9 53bd af90 dbbd
00000090: 2ef0 b6bd 3f56 d7bc f1e8 26bc b957 56be
000000a0: 9a52 033e 80e4 25be 5fba 5fbd 74b3 1f3d
000000b0: cd90 0ebd b4e2 31be e1f4 9c3d 4fb6 223e
000000c0: 15e2 55bd 27c9 a03d 836e 35bd 82df ea3d
000000d0: 754b 733c 2942 fa3d c1c6 5c3e 8306 bf3d
000000e0: b7ee 7d3e ace5 e2bc 1318 343d 4cbe 073e
000000f0: 3fd9 05be a226 92bd d684 f5bd a499 f63d
00000100: 17e9 233e 68a2 e4bd a0a8 54bd 8533 46be
00000110: d8fc 86bd 78c4 d53d 3b92 983e 32d6 c3bc
00000120: 003c 6bbe b24a 4b3d 2d4c 143c 87f6 6fbe
00000130: cffa babd a24a 783e 91fb b1bd 121b c7bd
00000140: 7778 93bd b8ab 313e adac 13be d69b 1abe
00000150: e5d7 02be 6ac2 10be 67dc f93d 8eae a43e
00000160: 2b60 863d 4b40 cbbc 1ef7 fe3c 3448 50be
00000170: 2c67 abbd 4754 823d fef7 5d3d a841 b03d
00000180: 4ae0 97bd 21a7 a6bd 47df 493d 4124 803d
00000190: 42e3 7abc 4ca7 a7bd 8d87 233d b65a da3d
000001a0: 9a75 3bbd 06aa 3b3e 253f 2ebe 2a49 d8bd
000001b0: c293 98bd 15c0 d43d db16 f4bd 4112 eb3c
000001c0: 6bd8 613e bbd4 fe3d c0b0 023e f144 16be
000001d0: 7ce8 a1bd a027 9cbd a745 d03d f464 0c3e
000001e0: ef6c 6c3c 2c39 25bd c9f5 33be f0f7 82bc
000001f0: 4ebd 3138 dcd5 2dbe 580a 143e a8c5 32bc
00000200: 07f5 093e faa7 a13d bd7f 7cbd f790 523e
00000210: 70e5 2c3e 4b8b 66bd e43e 883d f59f 013e
00000220: 7e5f a0bd 5342 86bc 6372 68bd b144 a43b
00000230: 53a7 4fbd 50d8 56be b1b7 c73c 35a2 a8bd
00000240: 5fee 583e 4bf6 983c a08f 65be b556 bdbc
00000250: a6d4 b2bb cdad 5e3c 1991 ec3c 3bc2 a63c
00000260: 32b2 84bd 42f4 423d 74cf 143d 1b83 1b3e
00000270: 383f 1f3e 8728 93bd 8dcc 14be ee64 88bd
00000280: ee33 d3bb 18a1 8f3c 5691 98bd 9911 7a3e
00000290: 20f8 063e c12d 353d c8f4 0abc c252 023e
000002a0: adfc 383e d7e0 23bb dba4 b83c 248e f5bb
000002b0: 5d29 803d ad14 0a3e 5c38 09bd 1887 86bd
000002c0: e58f 033e 22da 1cbe 5b75 103c 289b c2bd
000002d0: 1302 843d 25d5 433d f93c b2bd c83a 11bd
000002e0: 76f1 b7bd 5ed7 16be 3e5c 0f3d a995 133d
000002f0: dfc3 9b3e 4179 f3bc 5c2a f43d a779 a83d
00000300: 9309 163d 709a b0bd 7478 1b3d 2af9 afbd
00000310: cd4f 063e 46e0 053e 7614 93bd c540 1f3c
00000320: 38a2 163e eafc 16be 11ab 0b3e fbb0 0c3e
00000330: 6cc0 cdbb de38 e33d 5c45 0b3c 1d8e fa3d
00000340: e4b5 893d 3522 983e 158a 8bbd 5694 d23d
00000350: 00de 183c 99b2 14be 3b85 62be 71d6 983d
00000360: 4db2 eebd 5424 663d 0e0c fcbd 6cb4 c23b
00000370: e22a 57be 7bde 083e ebbc 4d3e 678a d23a
00000380: 8a6f 21be 4aa8 abbb 31c1 9cbc 1249 05bc
00000390: 015c 193e ad21 503c 2fc3 14bd 2936 df3d
000003a0: b9de ebbd 53c7 57bb 4fa0 9d3c 411e 78be
000003b0: 22c3 d53d 97e2 2e3e 7986 c93c 4816 94be
000003c0: ca9d f0bd a21f 1cbe 67d7 a83e c25c 7dbd
000003d0: bb12 04be 33cc cbbb fc9e d63d f097 f7bb
000003e0: 219c 8b3d 0ff9 13bb 8349 003d 15db 18ba
000003f0: 8d15 033e 50a2 123e 8b6f 403e 9223 6abe

embedder.emb_rnn.bias_ih_l0 f4 [60]
1.0176162 1.0048215 1.0119181 0.96842813 1.0138164 1.0169425 1.0164794 1.0226418
1.0194277 0.9940403 0.98885876 1.0172193 1.0293021 1.0309231 1.0134871 0.97022057
1.0023878 0.9702754 0.98297644 0.991535 0.98720366 0.99637395 1.0209706 0.9884006
0.9923313 0.97724104 0.99606985 0.99740106 0.99377286 1.0006641 1.017378 0.9878775
0.9811452 1.0268437 0.98984694 1.0186174 1.0284265 1.0251827 0.96984833 0.97851527
1.017657 1.0053301 1.011907 0.9679717 1.0132909 1.0168604 1.0160724 1.022854
1.0202645 0.99440503 0.9884151 1.0169485 1.028599 1.0301936 1.014117 0.96785986
1.0224148 0.9698838 0.98321545 0.9940294
00000000: 3f41 823f fe9d 803f 8886 813f e8ea 773f
00000010: bcc4 813f 2c2b 823f ff1b 823f ede5 823f
00000020: 9b7c 823f 6d79 7e3f d925 7d3f 3e34 823f
00000030: 2cc0 833f 4af5 833f f2b9 813f 6060 783f
00000040: 3e4e 803f f863 783f 58a4 7b3f 3dd5 7d3f
00000050: 61b9 7c3f 5d12 7f3f 2aaf 823f d207 7d3f
00000060: 6d09 7e3f 782c 7a3f 6ffe 7e3f ad55 7f3f
00000070: e667 7e3f c315 803f 7139 823f 8ae5 7c3f
00000080: 552c 7b3f 9d6f 833f 9c66 7d3f 0e62 823f
00000090: 7ba3 833f 3039 833f fb47 783f fa7f 7a3f
000000a0: 9642 823f a8ae 803f 2b86 813f fecc 773f
000000b0: 84b3 813f 7b28 823f a90e 823f e1ec 823f
000000c0: 0798 823f 5491 7e3f c608 7d3f 5e2b 823f
000000d0: 22a9 833f 62dd 833f 96ce 813f aac5 773f
000000e0: 7dde 823f 4e4a 783f 02b4 7b3f b678 7e3f

embedder.emb_rnn.bias_hh_l0 f4 [60]
1.0176162 1.0048215 1.0119181 0.96842813 1.0138164 1.0169425 1.0164794 1.0226418
1.0194277 0.9940403 0.98885876 1.0172193 1.0293021 1.0309231 1.0134871 0.97022057
1.0023878 0.9702754 0.98297644 0.991535 0.98720366 0.99637395 1.0209706 0.9884006
0.9923313 0.97724104 0.99606985 0.99740106 0.99377286 1.0006641 1.017378 0.9878775
0.9811452 1.0268437 0.98984694 1.0186174 1.0284265 1.0251827 0.96984833 0.97851527
1.0177126 1.0051908 1.0119344 0.9681942 1.0134617 1.0169662 1.0160886 1.0232239
1.0203665 0.9943982 0.98838574 1.0170798 1.028844 1.0304987 1.0142148 0.96804434
1.0223871 0.9700615 0.983342 0.9944171
00000000: 3f41 823f fe9d 803f 8886 813f e8ea 773f
00000010: bcc4 813f 2c2b 823f ff1b 823f ede5 823f
00000020: 9b7c 823f 6d79 7e3f d925 7d3f 3e34 823f
00000030: 2cc0 833f 4af5 833f f2b9 813f 6060 783f
00000040: 3e4e 803f f863 783f 58a4 7b3f 3dd5 7d3f
00000050: 61b9 7c3f 5d12 7f3f 2aaf 823f d207 7d3f
00000060: 6d09 7e3f 782c 7a3f 6ffe 7e3f ad55 7f3f
00000070: e667 7e3f c315 803f 7139 823f 8ae5 7c3f
00000080: 552c 7b3f 9d6f 833f 9c66 7d3f 0e62 823f
00000090: 7ba3 833f 3039 833f fb47 783f fa7f 7a3f
000000a0: 6844 823f 18aa 803f 1187 813f 93db 773f
000000b0: 1db9 813f f32b 823f 310f 823f 00f9 823f
000000c0: 5f9b 823f e190 7e3f d906 7d3f ac2f 823f
000000d0: 29b1 833f 62e7 833f cad1 813f c1d1 773f
000000e0: 95dd 823f f355 783f 4dbc 7b3f 1e92 7e3f

embedder.emb_rnn.weight_ih_l1 f4 [60, 20]
-0.18417308 -0.16183364 -0.14161076 -0.22560762 0.051576193 -0.21844068 -0.060039777 0.18900508
-0.19474268 0.2029772 0.28752965 -0.02531135 -0.016558561 -0.24352252 0.27059883 0.23574105
-0.012514703 0.17917061 -0.2247576 -0.1689658 0.27825138 -0.25123182 -0.00810674 -0.12511268
-0.23757173 0.065956324 -0.0983633 0.074923664 -0.081365556 0.111252755 0.056951847 -0.2511181
0.19548969 0.19018064 -0.18869935 0.10236277 -0.10864853 0.20826417 -0.11084751 0.19267131
-0.1820515 -0.15580893 0.10321346 0.06616837 -0.13338846 0.19322076 0.04371014 0.12262335
-0.17076166 0.057665605 0.057721198 0.15129189 0.24438936 0.16631892 0.2608646 -0.12883753
-0.23323879 0.038854834 -0.013403389 -0.049142133 -0.21044332 0.0008039998 0.0183545 0.17782536
0.1413614 0.056206588 0.20250532 -0.019437023 0.23044607 -0.23852493 0.0022322214 -0.112779625
0.18579741 -0.067206375 -0.17526013 -0.035748143 0.009726664 0.19547871 0.16117422 -0.23750451
-0.10649437 -0.1234775 -0.0051821023 0.13102163 -0.030690582 0.25837559 0.039430838 0.1607546
-0.05659469 0.16795215 0.11672931 0.019160483 5.692682e-05 0.1294411 0.047906023 -0.16303337
-0.07644035 -0.1693173 0.074729756 0.21471351 -0.15880772 0.090144806 -0.21304055 0.111157775
-0.25829843 -0.10900372 -0.0047042733 -0.04798051 0.15252756 -0.11089847 0.089100376 0.11888446
0.07329925 -0.26616764 -0.15341291 -0.06914101 -0.0056489543 0.10238874 0.19099313 0.05491692
-0.1779161 -0.26249194 0.25495058 0.010568187 -0.23370045 -0.06560765 0.114699446 0.0010778082
0.19014889 -0.037274566 0.04400807 0.26640898 -0.23354615 0.03744674 -0.2132547 -0.17505766
-0.24633949 0.14357863 -0.044132393 0.109071545 0.00031713236 0.05874781 -0.26073223 -0.12775522
-0.105710775 -0.22964782 0.08587572 0.12473284 -0.12972946 -0.2178468 -0.17320918 -0.28607875
-0.20895989 -0.10658824 0.014485616 -0.16190612 -0.25537843 0.10833109 0.18827079 -0.017688347
-0.07020891 -0.15243208 0.05800012 -0.00937711 -0.1564882 0.15661249 0.13007492 0.17104462
0.15766734 -0.19358209 0.21949665 -0.036701553 -0.28319857 0.14228079 -0.20739949 -0.15981813
0.021992734 0.16335514 0.012646611 -0.26542085 -0.16644153 0.12125406 -0.055251714 0.09475798
0.2588016 -0.15846322 -0.21647842 -0.07178181 -0.0011858497 -0.071505 0.2873225 -0.14371951
0.17871381 0.12702653 0.27188525 -0.2437806 0.22062276 -0.06784484 -0.07645146 0.029149672
0.19112337 0.1455378 -0.15365797 0.070840195 -0.0056759003 0.09566168 0.005286267 -0.062413137
0.13215317 0.23935254 0.15117767 -0.084610365 0.009220587 0.058483824 -0.15372604 0.2373347
0.15067539 0.122809745 0.2590161 -0.030629368 0.21142195 -0.027652418 0.22526488 -0.15994854
-0.26301742 0.14619525 0.0991625 -0.25498587 0.12366597 -0.05381003 0.11610778 0.2535544
0.22580363 0.01519007 0.13969192 -0.2494278 0.025393298 0.0924377 0.14465986 0.10358111
0.20225266 0.03752527 0.10776059 -0.2503291 -0.112652026 0.14375876 0.11311617 0.13554493
0.12925541 -0.21291909 0.10912667 -0.06329433 -0.025684886 -0.0023512917 0.24960567 0.263565
00000000: de97 3cbe b8b7 25be 6902 11be af05 67be
00000010: 8f41 533d eaae 5fbe 45ec 75bd 8c8a 413e
00000020: a06a 47be 41d9 4f3e 1637 933e c059 cfbc
00000030: d2a5 87bc f85d 79be ee8b 8a3e 1a66 713e
00000040: 780a 4dbc 8078 373e db26 66be 5f05 2dbe
00000050: f776 8e3e 75a1 80be 22d2 04bc 8a1d 00be
00000060: 0146 73be 1c14 873d b372 c9bd 9471 993d
00000070: fca2 a6bd 7cd8 e33d 5746 693d 8d92 80be
00000080: 732e 483e b7be 423e 673a 41be 92a3 d13d
00000090: 1f83 debd 3443 553e 0504 e3bd a14b 453e
000000a0: b56b 3abe 608c 1fbe 9461 d33d 4883 873d
000000b0: fc96 08be aadb 453e 6709 333d f321 fb3d
000000c0: 25dc 2ebe c532 6c3d 106d 6c3d 43ec 1a3e
000000d0: 3441 7a3e 824f 2a3e 0b90 853e fced 03be
000000e0: 26d6 6ebe 3f26 1f3d e399 5bbc 4349 49bd
000000f0: 747e 57be 83c3 523a 2d5c 963c da17 363e
00000100: 0bc1 103e e138 663d 8e5d 4f3e 643a 9fbc
00000110: 0efa 6b3e e13f 74be 764a 123b 01f9 e6bd
00000120: ad41 3e3e 7fa3 89bd 6477 33be a56c 12bd
00000130: 965c 1f3c 922b 483e db0a 253e 6234 73be
00000140: b819 dabd c6e1 fcbd a0ce a9bb 892a 063e
00000150: d16a fbbc ce49 843e 3b82 213d db9c 243e
00000160: d5cf 67bd a6fb 2b3e c70f ef3d 72f6 9c3c
00000170: b5c4 6e38 358c 043e 1b39 443d 38f2 26be
00000180: c28c 9cbd 8461 2dbe ea0b 993d dcdd 5b3e
00000190: 7e9e 22be d79d b83d 4d27 5abe b0a6 e33d
000001a0: b13f 84be 583d dfbd 4e26 9abb 3687 44bd
000001b0: 2f30 1c3e bd1e e3bd 427a b63d b279 f33d
000001c0: eb1d 963d 2047 88be 4618 1dbe cd99 8dbd
000001d0: dd1a b9bb 30b1 d13d b493 433e 90f0 603d
000001e0: a32f 36be 5865 86be e288 823e 3026 2d3c
000001f0: 2c4f 6fbe 4e5d 86bd 8be7 ea3d 3e45 8d3a
00000200: 64b6 423e 37ad 18bd ce41 343d c266 883e
00000210: b926 6fbe c161 193d 715f 5abe 5142 33be
00000220: 6b40 7cbe 4706 133e 2bc4 34bd e760 df3d
00000230: c944 a639 8ba1 703d b27e 85be 44d2 02be
00000240: e47e d8bd cc28 6bbe 9cdf af3d ee73 ff3d
00000250: cdd7 04be 3b13 5fbe bf5d 31be ea78 92be
00000260: 95f9 55be ef4a dabd 1455 6d3c b8ca 25be
00000270: f6c0 82be b1dc dd3d 0fca 403e 27e7 90bc
00000280: b0c9 8fbd 2817 1cbe 8991 6d3d 73a2 19bc
00000290: 713e 20be 065f 203e 5c32 053e 5226 2f3e
000002a0: 8c73 213e 623a 46be bbc3 603e 5e54 16bd
000002b0: 67ff 90be 0eb2 113e 8860 54be 5da7 23be
000002c0: 1b2a b43c 9246 273e bb33 4f3c 3ee5 87be
000002d0: a66f 2abe 0c54 f83d 9f4f 62bd 7910 c23d
000002e0: a581 843e 2f44 22be 85ac 5dbe 5702 93bd
000002f0: 836e 9bba 3771 92bd ef1b 933e 352b 13be
00000300: c100 373e 3e13 023e 8b34 8b3e 9fa1 79be
00000310: efea 613e 3cf2 8abd 9592 9cbd 4bcb ee3c
00000320: d8b5 433e dc07 153e 8458 1dbe aa14 913d
00000330: e7fc b9bb 45ea c33d 6c38 ad3b eba4 7fbd
00000340: 2953 073e d518 753e 52ce 1a3e 3348 adbd
00000350: f211 173c bc8c 6f3d 5c6a 1dbe de07 733e
00000360: a64a 1a3e ad83 fb3d c29d 843e 71ea fabc
00000370: ff7e 583e 5387 e2bc d6ab 663e 8dc9 23be
00000380: 38aa 86be 35b4 153e b515 cb3d 828d 82be
00000390: 9644 fd3d e867 5cbd eac9 ed3d e2d1 813e
000003a0: 1139 673e c5df 783c 660b 0f3e 006a 7fbe
000003b0: 9b05 d03c fa4f bd3d b721 143e 5522 d43d
000003c0: 521b 4f3e 19b4 193d 96b1 dc3d 232b 80be
000003d0: 1bb6 e6bd 7f35 133e 73a9 e73d 4acc 0a3e
000003e0: 885b 043e 7607 5abe ce7d df3d 75a0 81bd
000003f0: 1c69 d2bc 2118 1abb a198 7f3e fef1 863e

embedder.emb_rnn.weight_hh_l1 f4 [60, 20]
-0.094279245 0.13626395 -0.095218875 0.21849069 -0.16938137 0.20875843 0.06424827 -0.021544306
-0.046559095 0.10836958 0.06629204 0.16947854 0.07234042 0.0066425363 0.08355359 0.01252724
0.02510132 -0.055020966 0.08008043 0.04188452 -0.09487388 0.3808966 0.049133603 0.03505115
-0.14552814 0.05359394 0.04488171 0.049698297 -0.105747804 -0.010728617 0.15697604 0.08837861
0.16719443 -0.04151024 -0.003955283 -0.03379332 0.22470781 0.17419928 -0.067499794 -0.12693983
0.03521239 -0.10228414 0.32586238 0.17727259 -0.016685594 0.08001018 0.01702912 0.24233486
0.1175651 0.005496251 -0.12449401 0.065186575 -0.08501032 0.10679436 0.15754825 0.23193562
-0.038478587 0.038613778 0.0085263485 0.025549069 0.20530367 0.17632899 -0.07630036 0.020608302
-0.2213501 0.06137032 -0.17376001 -0.063811 -0.018110923 0.23127443 0.18365319 -0.20985453
-0.21333678 -0.24456249 0.09202646 0.022050979 0.09277389 0.18769175 0.12262943 0.14738652
0.030084917 0.003932916 0.23012088 -0.030555518 -0.08098625 0.040595245 0.020217385 -0.08631651
0.060307175 0.005099137 -0.02741032 0.10294224 -0.067866735 -0.10530854 -0.021854367 -0.07308149
-0.10557065 -0.15378635 -0.0638006 0.25852072 0.11774748 0.16099638 0.21282783 -0.20326576
-0.026052376 -0.03360668 0.12754752 -0.34166327 -0.016537897 -0.18713725 0.09657566 -0.047407717
-0.0525019 0.03785756 0.08855611 0.030563766 -0.16982019 0.08584832 -0.11307181 -0.05159736
-0.07532223 -0.05307059 -0.01549862 0.08875789 0.33570495 -0.16621096 -0.06962057 0.14401972
-0.043450933 -0.03436445 0.20812225 -0.21519993 0.111973606 -0.1663488 -0.0980532 0.15335645
-0.15160511 0.10057247 -0.094034165 0.0756494 -0.16654618 0.086515136 0.027772661 -0.080163166
0.034627978 -0.098373905 0.0074217515 -0.17781767 0.03432687 -0.12331362 -0.10975741 0.08172054
-0.052354235 -0.028316742 -0.1280288 -0.1327416 0.06104584 0.21001495 -0.16063869 0.14795342
-0.0046497895 -0.17522207 0.0043036616 -0.14430256 -0.09275924 -0.00077620597 -0.2436355 -0.14676873
0.03595553 0.024781708 -0.08187052 0.12239999 -0.16281918 -0.21788742 -0.018895894 0.1571911
0.0694621 0.2663076 0.008473206 -0.016487883 0.066422425 -0.028694179 -0.12408103 0.20706306
0.19062805 0.069235556 -0.020348763 -0.10052128 -0.043236304 0.07188524 0.24656253 0.23640065
-0.08453639 0.17078248 0.025377402 -0.10675294 -0.014708958 0.17628068 -0.23341547 0.30635497
-0.08749458 -0.18026371 -0.114143565 -0.031398244 0.015392209 -0.16196413 -0.012052158 -0.050014224
-0.090822466 -0.17146285 -0.022951832 -0.11711546 -0.09591832 -0.08838924 -0.17922626 0.012739497
0.17059274 0.06386518 0.03343051 0.23096398 0.08777998 -0.0063396543 0.14372568 -0.1300941
0.18235521 -0.054223914 0.13972291 -0.013509681 -0.098207675 -0.03574132 0.2357998 0.23196718
0.06650594 0.029910618 -0.19514164 -0.007379257 -0.24191843 0.19382888 0.32424864 0.120588
0.044744976 -0.04505464 -0.04333664 0.21874993 0.09858511 0.23159096 -0.240105 -0.09552753
-0.07385859 -0.036351644 -0.010047021 -0.12308537 0.10825146 -0.19327131 -0.092394255 0.011939309
00000000: 7a15 c1bd c788 0b3e 1d02 c3bd 06bc 5f3e
00000010: 4f72 2dbe c5c4 553e 9994 833d af7d b0bc
00000020: c0b4 3ebd dff0 dd3d 1fc4 873d c88b 2d3e
00000030: 3727 943d a2a9 d93b 251e ab3d 0e3f 4d3c
00000040: 49a1 cd3c aa5d 61bd 3501 a43d 1a8f 2b3d
00000050: 3d4d c2bd e104 c33e 5140 493d cb91 0f3d
00000060: 5405 15be 5285 5b3d e2d5 373d 7190 4b3d
00000070: 4e92 d8bd 15c7 2fbc 54be 203e d8ff b43d
00000080: 0435 2b3e a406 2abd 529b 81bb dd6a 0abd
00000090: ce19 663e 4c61 323e 553d 8abd 84fc 01be
000000a0: de3a 103d 597a d1bd 6fd7 a63e f286 353e
000000b0: 3ab0 88bc 61dc a33d a780 8b3c a126 783e
000000c0: f9c5 f03d e519 b43b b7f6 febd 8a80 853d
000000d0: e419 aebd 00b7 da3d 5454 213e 8880 6d3e
000000e0: b99b 1dbd 7b29 1e3d 19b2 0b3c 484c d13c
000000f0: 203b 523e 968f 343e 5d43 9cbd bed2 a83c
00000100: 9aa9 62be 725f 7b3d 25ee 31be 57af 82bd
00000110: 5c5d 94bc 34d3 6c3e 950f 3c3e 1be4 56be
00000120: f574 5abe 976e 7abe 5e78 bc3d 41a4 b43c
00000130: 3d00 be3d 4432 403e 2325 fb3d 7eec 163e
00000140: a574 f63c b1df 803b cfa4 6b3e 914f fabc
00000150: 1edc a5bd 3347 263d ee9e a53c b6c6 b0bd
00000160: a804 773d a916 a73b 9b8b e0bc 62d3 d23d
00000170: b7fd 8abd 01ac d7bd ee07 b3bc c0ab 95bd
00000180: 6d35 d8bd 2b7a 1dbe e4a9 82bd d45c 843e
00000190: 9725 f13d 3cdc 243e 8aef 593e e624 50be
000001a0: cb6b d5bc 28a7 09bd d19b 023e 7dee aebe
000001b0: 7c7a 87bc e8a0 3fbe 76c9 c53d 982e 42bd
000001c0: 3b0c 57bd 8710 1b3d e85c b53d dd60 fa3c
000001d0: 58e5 2dbe 3ed1 af3d 3192 e7bd c157 53bd
000001e0: 8b42 9abd 8c60 59bd eded 7dbc b2c6 b53d
000001f0: 85e1 ab3e 3533 2abe 3b95 8ebd e879 133e
00000200: 9bf9 31bd bdc1 0cbd 001e 553e 5f5d 5cbe
00000210: 6b52 e53d 5757 2abe 1ed0 c8bd 7909 1d3e
00000220: 5f3e 1bbe f0f8 cd3d fc94 c0bd 13ee 9a3d
00000230: 158b 2abe d92e b13d 7e83 e33c 962c a4bd
00000240: 11d6 0d3d 4278 c9bd 2a32 f33b d615 36be
00000250: 559a 0c3d da8b fcbd 7ec8 e0bd 195d a73d
00000260: 6571 56bd 83f8 e7bc fb19 03be 6aed 07be
00000270: 340b 7a3d 290e 573e 787e 24be 1a81 173e
00000280: 435d 98bb 6a6d 33be bb05 8d3b 0dc4 13be
00000290: 8ef8 bdbd 4d7a 4bba 967b 79be 8b4a 16be
000002a0: 1b46 133d 0203 cb3c bbab a7bd d9ac fa3d
000002b0: 12ba 26be e11d 5fbe 90cb 9abc b4f6 203e
000002c0: 2542 8e3d 7859 883e 34d3 0a3c 9911 87bc
000002d0: 7b08 883d 0e10 ebbc 321e febd 5708 543e
000002e0: 0034 433e 5fcb 8d3d 73b2 a6bc 1ade cdbd
000002f0: 8d18 31bd 9238 933d e37a 7c3e 0313 723e
00000300: 6a21 adbd 9ae1 2e3e 45e4 cf3c 49a1 dabd
00000310: d7fd 70bc ec82 343e 7704 6fbe 8fda 9c3e
00000320: 5c30 b3bd 0d97 38be 1ac4 e9bd 729b 00bd
00000330: 9b2f 7c3c edd9 25be 6a76 45bc b7db 4cbd
00000340: 2101 babd f593 2fbe 7b05 bcbc 3bda efbd
00000350: d370 c4bd 6b05 b5bd 1787 37be 53b9 503c
00000360: ddaf 2e3e bfcb 823d 6eee 083d d281 6c3e
00000370: fdc5 b33d e0bc cfbb d32c 133e 6337 05be
00000380: 53bb 3a3e e519 5ebd 8613 0f3e b657 5dbc
00000390: 1b21 c9bd 7e65 12bd 8175 713e ce88 6d3e
000003a0: 4434 883d 1d07 f53c 36d3 47be b2cd f1bb
000003b0: 77b9 77be 147b 463e eb03 a63e d7f6 f63d
000003c0: 8246 373d 378b 38bd c381 31bd fbff 5f3e
000003d0: fde6 c93d 2e26 6d3e 16de 75be f0a3 c3bd
000003e0: 2c43 97bd 76e5 14bd 439c 24bc 2f14 fcbd
000003f0: f1b2 dd3d eae8 45be 3339 bdbd 179d 433c

embedder.emb_rnn.bias_ih_l1 f4 [60]
1.0163379 1.0206739 0.99149555 1.0113031 1.0092193 0.9983196 1.0096166 0.9693324
0.9687389 1.0200971 1.0053229 1.0043625 1.0191569 0.9735619 0.99526703 1.0287666
0.9669149 1.0235875 1.0197095 0.9843829 1.0154536 0.993567 1.010839 0.97767764
1.0214405 1.0046127 0.99284416 1.0284071 1.0309943 0.9710487 1.0084887 1.0098851
0.9757279 1.0127087 1.008244 0.97280234 0.9686267 1.0013099 0.97641754 1.0152614
1.0159125 1.0208042 0.99093014 1.0104002 1.0095669 0.9981565 1.0096676 0.96913254
0.9684656 1.0208946 1.0060648 1.0049864 1.0215741 0.9736666 0.99527436 1.0292803
0.96675944 1.0242041 1.0205067 0.9846279
00000000: 5c17 823f 71a5 823f a7d2 7d3f 6172 813f
00000010: 192e 813f e091 7f3f 1e3b 813f 2b26 783f
00000020: 46ff 773f 8b92 823f 6cae 803f f38e 803f
00000030: bc73 823f 5a3b 793f d2c9 7e3f a0ae 833f
00000040: bc87 773f ea04 833f d785 823f 8500 7c3f
00000050: 62fa 813f 685a 7e3f 2c63 813f 1549 7a3f
00000060: 90be 823f 2697 803f 092b 7e3f d8a2 833f
00000070: 9ff7 833f a696 783f 2816 813f ea43 813f
00000080: 4ec9 793f 70a0 813f 240e 813f 9309 793f
00000090: ebf7 773f ec2a 803f 80f6 793f 16f4 813f
000000a0: 6c09 823f b6a9 823f 99ad 7d3f cb54 813f
000000b0: 7d39 813f 2f87 7f3f ca3c 813f 1219 783f
000000c0: 5ded 773f adac 823f bbc6 803f 65a3 803f
000000d0: f1c2 823f 3742 793f 4dca 7e3f 75bf 833f
000000e0: 8c7d 773f 1f19 833f f79f 823f 9310 7c3f

embedder.emb_rnn.bias_hh_l1 f4 [60]
1.0163379 1.0206739 0.99149555 1.0113031 1.0092193 0.9983196 1.0096166 0.9693324
0.9687389 1.0200971 1.0053229 1.0043625 1.0191569 0.9735619 0.99526703 1.0287666
0.9669149 1.0235875 1.0197095 0.9843829 1.0154536 0.993567 1.010839 0.97767764
1.0214405 1.0046127 0.99284416 1.0284071 1.0309943 0.9710487 1.0084887 1.0098851
0.9757279 1.0127087 1.008244 0.97280234 0.9686267 1.0013099 0.97641754 1.0152614
1.0159954 1.0208495 0.9908778 1.0102427 1.0094453 0.99792564 1.00974 0.9697832
0.96849114 1.0210134 1.005972 1.0049908 1.0217766 0.97424495 0.9951896 1.0298156
0.96701425 1.0243784 1.0207057 0.98449826
00000000: 5c17 823f 71a5 823f a7d2 7d3f 6172 813f
00000010: 192e 813f e091 7f3f 1e3b 813f 2b26 783f
00000020: 46ff 773f 8b92 823f 6cae 803f f38e 803f
00000030: bc73 823f 5a3b 793f d2c9 7e3f a0ae 833f
00000040: bc87 773f ea04 833f d785 823f 8500 7c3f
00000050: 62fa 813f 685a 7e3f 2c63 813f 1549 7a3f
00000060: 90be 823f 2697 803f 092b 7e3f d8a2 833f
00000070: 9ff7 833f a696 783f 2816 813f ea43 813f
00000080: 4ec9 793f 70a0 813f 240e 813f 9309 793f
00000090: ebf7 773f ec2a 803f 80f6 793f 16f4 813f
000000a0: 230c 823f 32ab 823f 2baa 7d3f a24f 813f
000000b0: 8135 813f 0e78 7f3f 293f 813f b643 783f
000000c0: 09ef 773f 91b0 823f b1c3 803f 8aa3 803f
000000d0: 93c9 823f 1e68 793f bfc4 7e3f ffd0 833f
000000e0: 3f8e 773f d51e 833f 7ca6 823f 1408 7c3f

embedder.emb_rnn.weight_ih_l2 f4 [60, 20]
0.1924865 -0.27832022 0.067545734 0.19553773 -0.07105893 -0.2861072 -0.24904197 -0.040507976
-0.07040438 0.16303411 0.19185245 -0.19642994 -0.09951546 -0.24154176 0.033829685 0.17348225
-0.1190516 -0.018050665 -0.04839359 -0.26446375 0.23764588 0.029763814 0.22776915 -0.2673781
-0.10943717 -0.101421915 0.060857527 -0.098444894 -0.18661928 0.19499023 0.18565856 0.24297418
0.1353791 0.15189134 -0.21014218 -0.008895252 -0.11399863 -0.053742807 -0.0069682845 0.036830306
-0.16549656 -0.048016876 -0.13050346 -0.074213 -0.17928816 -0.14691357 -0.19507545 -0.19663574
-0.02250103 -0.23650128 -0.26472804 0.18857802 -0.2009314 0.18445042 0.014989122 -0.043513834
0.20344251 -0.21758628 0.12745872 0.17803697 0.24013896 -0.23413181 0.034221057 -0.013305166
-0.18029155 0.20843644 -0.026743112 0.20636131 -0.1263877 -0.099862024 0.12398908 0.05601582
0.1784561 0.13637382 0.2403501 -0.18001135 0.081510015 0.224899 -0.10257908 -0.15024923
0.2906548 -0.20830996 -0.17817546 -0.21072853 0.09030898 0.087290496 -0.21942198 0.18836768
0.0991457 0.11384856 -0.24765633 -0.23000813 -0.20409551 -0.09315161 -0.22273813 0.16007338
-0.017714906 -0.08702087 0.25896326 0.0565614 0.047406014 -0.14188346 -0.0682946 -0.21901482
-0.15628445 0.28425488 -0.16651416 0.162691 0.20077011 0.19092847 0.2361465 0.24685183
0.15905942 -0.00094519655 -0.057968512 -0.2495917 0.15819582 -0.049957022 0.055031028 -0.049085237
0.14389099 -0.024267636 0.16316737 0.17172305 0.051827643 -0.05530776 0.0938145 -0.19438925
0.1596747 0.1791613 0.002644346 -0.06054173 0.034793776 0.2084438 0.031557743 -0.17165527
-0.08999464 -0.30214468 -0.04032072 -0.28268316 0.06539472 0.038545616 0.25918984 -0.07781335
-0.011960565 0.0029319313 -0.09678408 -0.09283055 -0.10861327 -0.11184858 0.0356873 0.10965934
0.058488045 0.22625396 -0.030160317 0.08324961 -0.21925408 0.17566395 0.23062576 0.109722935
-0.15254174 0.013491259 -0.2052334 -0.22543538 0.2318741 0.1507824 0.23055428 0.199855
-0.020363556 0.15044895 -0.10704092 -0.199818 -0.019359924 -0.14026922 0.27845633 -0.19877294
0.27726734 -0.022758223 0.073169306 0.26135376 -0.10290953 -0.077744596 0.13665602 -0.04575979
0.05963904 0.19606106 0.036781915 0.20967631 -0.096771374 0.13506088 0.04964938 -0.18749216
-0.0069309343 0.12859827 -0.1453541 0.25641495 -0.13191278 0.17289066 0.05458848 -0.13612488
0.18755902 -0.08122504 -0.06096719 -0.09740989 -0.29159212 0.14315116 -0.14279886 0.14583918
0.11201508 0.12960802 0.079183124 0.06958755 -0.2496376 -0.03157775 -0.1317361 0.18802239
0.08997284 -0.011901541 -0.26675287 -0.2696417 -0.23557997 0.18533663 0.16450301 -0.2491638
-0.2414383 0.22139244 0.103933096 -0.17975944 -0.0389455 0.16239263 0.1384112 -0.016993731
-0.12042507 -0.10217393 -0.088539645 -0.17617178 -0.19193551 0.18735312 0.038927086 0.082266875
-0.19859478 0.051202606 0.24377455 0.15020996 -0.010338665 -0.12602754 0.26392376 -0.117335945
-0.078159675 0.013427157 -0.07780778 -0.010880251 -0.064231135 -0.1657811 0.002444071 0.11346738
00000000: 2e1b 453e fd7f 8ebe 6b55 8a3d 0b3b 483e
00000010: 5887 91bd a57c 92be dc04 7fbe b1eb 25bd
00000020: 2c30 90bd 6af2 263e f874 443e ee24 49be
00000030: c3ce cbbd b956 77be ff90 0a3d 55a5 313e
00000040: 53d1 f3bd fdde 93bc 5b38 46bd cb67 87be
00000050: 7159 733e 3ed3 f33c 513c 693e c8e5 88be
00000060: 9820 e0bd 4bb6 cfbd be45 793d 7a9d c9bd
00000070: 2019 3fbe 85ab 473e 471d 3e3e 39ce 783e
00000080: d2a0 0a3e 6789 1b3e 832f 57be 64bd 11bc
00000090: 1d78 e9bd 6b21 5cbd 3556 e4bb 60db 163d
000000a0: ee77 29be 58ad 44bd b3a2 05be fcfc 97bd
000000b0: 5197 37be 8370 16be dcc1 47be e15a 49be
000000c0: 1454 b8bc 642d 72be 6f8a 87be 991a 413e
000000d0: f6c0 4dbe 92e0 3c3e ef94 753c 903b 32bd
000000e0: 3c53 503e f0ce 5ebe 8a84 023e 534f 363e
000000f0: fde6 753e 40c0 6fbe 612b 0c3d e9fd 59bc
00000100: 599e 38be 5d70 553e 5f14 dbbc 6150 533e
00000110: c76b 01be 7684 ccbd fded fd3d d870 653d
00000120: 32bd 363e 94a5 0b3e 561e 763e e554 38be
00000130: b9ee a63d ec4b 663e fb14 d2bd efda 19be
00000140: b5d0 943e 354f 55be a173 36be 38c9 57be
00000150: eaf3 b83d 5cc5 b23d 28b0 60be 75e3 403e
00000160: e70c cb3d 6f29 e93d 9f99 7dbe 4087 6bbe
00000170: 6afe 50be 45c6 bebd 7715 64be 47ea 233e
00000180: da1e 91bc ff37 b2bd d596 843e edac 673d
00000190: cf2c 423d e649 11be 0ade 8bbd 6c45 60be
000001a0: 0809 20be db89 913e b082 2abe 7898 263e
000001b0: ae96 4d3e c182 433e 63d0 713e bac6 7c3e
000001c0: 79e0 223e 11c7 77ba 6470 6dbd f794 7fbe
000001d0: 16fe 213e bc9f 4cbd 3768 613d 9a0d 49bd
000001e0: 2958 133e eccc c6bc 5915 273e 2bd8 2f3e
000001f0: 3949 543d 648a 62bd d121 c03d fa0d 47be
00000200: c481 233e 0f76 373e c44c 2d3b 9bfa 77bd
00000210: eb83 0e3d 4b72 553e b142 013d 66c6 2fbe
00000220: 1c4f b8bd b5b2 9abe 5727 25bd d9bb 90be
00000230: abed 853d 02e2 1d3d 88b4 843e 9b5c 9fbd
00000240: 3ff6 43bc a525 403b bb36 c6bd f21d bebd
00000250: a270 debd de10 e5bd d92c 123d 1395 e03d
00000260: 2991 6f3d 1eaf 673e c512 f7bc c67e aa3d
00000270: 2484 60be 40e1 333e 2929 6c3e 6bb6 e03d
00000280: e733 1cbe 710a 5d3c b428 52be 88d8 66be
00000290: 6770 6d3e b466 1a3e 6c16 6c3e caa6 4c3e
000002a0: 79d1 a6bc 4a0f 1a3e 4538 dbbd 179d 4cbe
000002b0: b498 9ebc bca2 0fbe d491 8e3e 228b 4bbe
000002c0: fcf5 8d3e 746f babc cad9 953d 29d0 853e
000002d0: 3bc2 d2bd 8f38 9fbd 8eef 0b3e 9e6e 3bbd
000002e0: 1148 743d 3bc4 483e a2a8 163d 63b5 563e
000002f0: 1230 c6bd 664d 0a3e 265d 4b3d f2fd 3fbe
00000300: e41c e3bb 44af 033e b5d7 14be d248 833e
00000310: 2514 07be 400a 313e 2c98 5f3d 5264 0bbe
00000320: 790f 403e 5059 a6bd bbb8 79bd d67e c7bd
00000330: 904b 95be 3896 123e dd39 12be de56 153e
00000340: 2a68 e53d f7b7 043e c32a a23d eb83 8e3d
00000350: 00a1 7fbe ac57 01bd d4e5 06be f188 403e
00000360: ae43 b83d aefe 42bc d593 88be 7a0e 8abe
00000370: e03b 71be e3c8 3d3e 7a73 283e cc24 7fbe
00000380: 9a3b 77be b3b4 623e e0da d43d dc12 38be
00000390: 5185 1fbd 414a 263e aabb 0d3e 7036 8bbc
000003a0: 6ba1 f6bd 9140 d1bd 4654 b5bd 6066 34be
000003b0: be8a 44be 7fd9 3f3e 0272 1f3d 897b a83d
000003c0: 6e5c 4bbe d3b9 513d 09a0 793e a4d0 193e
000003d0: 8163 29bc 5d0d 01be 0421 873e d44d f0bd
000003e0: 2e12 a0bd 94fd 5b3c af59 9fbd 1543 32bc
000003f0: 9d8b 83bd 85c2 29be b52c 203b 9661 e83d

embedder.emb_rnn.weight_hh_l2 f4 [60, 20]
-0.08334915 -0.14064871 -0.009022759 0.22271873 -0.16891794 -0.050748806 0.06475285 -0.022121795
0.02968725 -0.3187153 -0.13725999 -0.004904176 -0.00854587 -0.13226695 -0.22953317 -0.022702953
-0.16230655 0.25860226 0.11136054 -0.18439807 0.03456899 0.099028096 0.046739027 0.111996174
-0.14002186 0.023387982 -0.009132226 0.059444983 0.1838424 0.022622585 -0.088917464 -0.24420428
-0.007058937 0.26587775 -0.33663714 0.04736774 -0.07903463 -0.25102678 -0.0044343076 0.068384245
-0.2819706 0.11196376 -0.011804124 0.058332026 -0.10129885 -0.056345113 0.052375942 0.021469325
0.035153978 0.05674635 0.055301532 0.0019942338 -0.014187432 -0.046638954 0.18552934 0.025364762
-0.023452293 -0.049878653 0.12284149 0.025733965 0.09563728 -0.050281882 -0.10219389 0.100146785
-0.059444737 0.10965592 -0.0022716364 0.07442234 -0.15476765 -0.011009813 -0.0068405233 0.14976823
0.059304 -0.19515751 0.12784834 0.2090443 -0.3710396 -0.18584792 0.037533123 -0.15487476
0.0037976217 -0.03733415 0.23283355 0.008350125 0.13991137 0.19853619 0.074312404 0.16259545
-0.1896697 0.11584729 -0.07662943 0.060012393 -0.1517563 -0.09621819 -0.11605546 -0.16332541
0.071613744 0.09996953 0.2513137 -0.03948544 0.07184329 -0.11630215 0.06967894 0.17399468
0.045393787 -0.007266217 0.07179475 0.14163782 -0.11944376 0.057193205 -0.02624927 -0.07427389
0.13389109 0.123528026 -0.036638178 -0.1274538 -0.16344519 0.20913726 0.08288579 0.18283053
-0.14021298 -0.15143627 -0.034198284 -0.042965386 0.09738299 -0.07054607 -0.2478712 0.10013124
0.06568797 0.038275983 -0.29138014 0.024998963 0.048083566 0.1831746 0.12126232 0.20283087
0.019077316 -0.017209226 0.24837263 -0.06572331 0.018093942 0.14434765 -0.02123217 -0.18849105
-0.1073814 0.17873164 0.017746301 -0.110570334 0.15293494 0.21584788 -0.031077623 -0.0722087
0.10199926 -0.086508244 0.1255529 0.041107103 -0.04663739 0.09057492 -0.11488571 -0.25396097
0.16984747 0.018296486 -0.060964894 -0.004456047 0.0008251464 0.051266614 0.23133813 0.10899271
0.07897836 0.10614207 0.03169187 0.18223287 0.07711812 0.0456466 -0.06463581 -0.045863103
0.11690632 0.14599407 0.3330707 0.09585108 0.2135368 0.050333485 -0.16073163 0.07534528
0.0070128525 0.30541012 0.07590421 -0.0086697815 0.12273009 0.06755766 -0.15845737 -0.123465784
-0.011916104 0.1858126 0.24173579 0.044487722 -0.03655265 0.016658708 0.099002816 -0.007837945
0.017689237 0.13619295 0.07149952 -0.0386208 -0.05535087 -0.2502786 -0.019580869 0.024944311
-0.046866514 -0.06542632 -0.085283965 0.14756492 0.039777797 0.010578524 0.15327136 -0.057073727
-0.109681666 0.033370093 -0.056140896 0.17638573 0.23433171 -0.20965606 -0.21487856 -0.1993317
-0.017357348 -0.035881933 0.062549055 0.09679056 -0.006210477 0.03709373 -0.23375098 0.20731589
2.7339389e-05 0.03412339 -0.21177937 0.09870126 -0.06395168 0.15452059 -0.03237013 0.016819982
-0.13427386 0.0043341783 0.12101725 -0.033078827 0.06596306 -0.14839141 -0.023981033 0.32382137
0.14894435 -0.19531913 -0.15843457 -0.0735117 0.1365866 -0.16542472 0.26522252 0.072653934
00000000: f6b2 aabd 3706 10be 32d4 13bc 6110 643e
00000010: d3f8 2cbe fbdd 4fbd 249d 843d c438 b5bc
00000020: ad32 f33c a72e a3be e28d 0cbe 36b3 a0bb
00000030: fa03 0cbc fd70 07be be0a 6bbe 8bfb b9bc
00000040: b033 26be 8467 843e ff10 e43d d9d2 3cbe
00000050: 3798 0d3d 3ecf ca3d 6c71 3f3d 405e e53d
00000060: e461 0fbe 2798 bf3c 559f 15bc 957c 733d
00000070: 2f41 3c3e 0053 b93c 5c1a b6bd b010 7abe
00000080: a84e e7bb 2121 883e b45b acbe ad04 423d
00000090: e8dc a1bd 9586 80be ab4d 91bb 0a0d 8c3d
000000a0: 735e 90be 414d e53d 1666 41bc 90ed 6e3d
000000b0: c575 cfbd 22ca 66bd 2888 563d 70e0 af3c
000000c0: 9efd 0f3d dc6e 683d dc83 623d b1b1 023b
000000d0: 6772 68bc 7d08 3fbd 67fb 3d3e c3c9 cf3c
000000e0: 061f c0bc 8f4d 4cbd 5294 fb3d 09d0 d23c
000000f0: 7add c33d 60f4 4dbd 084b d1bd c219 cd3d
00000100: 537c 73bd 4893 e03d bcdf 14bb bd6a 983d
00000110: 697b 1ebe 8162 34bc 7826 e0bb d85c 193e
00000120: c0e8 723d 5fd7 47be adea 023e b50f 563e
00000130: e7f8 bdbe eb4e 3ebe 55bc 193d 7d97 1ebe
00000140: 85e1 783b b2eb 18bd eb6b 6e3e f6ce 083c
00000150: ed44 0f3e 124d 4b3e 1a31 983d 6c7f 263e
00000160: c638 42be 5841 ed3d e4ef 9cbd 8ecf 753d
00000170: 0166 1bbe 0b0e c5bd 7cae edbd c73e 27be
00000180: 3aaa 923d d3bc cc3d 30ac 803e 7cbb 21bd
00000190: 9322 933d d22f eebd d5b3 8e3d a92b 323e
000001a0: d6ee 393d 7219 eebb 2009 933d 8109 113e
000001b0: ee9e f4bd 6c43 6a3d b608 d7bc e91c 98bd
000001c0: bf1a 093e 43fc fc3d ea11 16bd 4083 02be
000001d0: 2d5e 27be 1428 563e 06c0 a93d ed37 3b3e
000001e0: fe93 0fbe 1c12 1bbe 8013 0cbd 79fc 2fbd
000001f0: bc70 c73d 757a 90bd f3d1 7dbe 9c11 cd3d
00000200: 6a87 863d 47c7 1c3d c72f 95be a0ca cc3c
00000210: 46f3 443d 1f92 3b3e 6158 f83d e5b2 4f3e
00000220: 0848 9c3c 5dfa 8cbc 6555 7e3e f199 86bd
00000230: bf39 943c dfcf 133e 16ef adbc cc03 41be
00000240: c8ea dbbd 6d05 373e b160 913c b372 e2bd
00000250: fa9a 1c3e 3a07 5d3e 8096 febc 28e2 93bd
00000260: fde4 d03d 3c2b b1bd f090 003e ec5f 283d
00000270: d906 3fbd 587f b93d 3349 ebbd 2c07 82be
00000280: 7fec 2d3e 83e2 953c 53b6 79bd 0804 92bb
00000290: a34e 583a f1fc 513d e7e3 6c3e 9237 df3d
000002a0: 68bf a13d 0361 d93d 56cf 013d 419b 3a3e
000002b0: 1bf0 9d3d eef7 3a3d c85f 84bd f3da 3bbd
000002c0: 956c ef3d 787f 153e 3e88 aa3e 924d c43d
000002d0: 64a9 5a3e 7c2a 4e3d d596 24be a04e 9a3d
000002e0: 12cc e53b b75e 9c3e ab73 9b3d b30b 0ebc
000002f0: ea59 fb3d ac5b 8a3d a642 22be a1db fcbd
00000300: c33b 43bc a945 3e3e 9689 773e c238 363d
00000310: 3bb8 15bd d877 883c fdc1 ca3d b96a 00bc
00000320: 05e9 903c 2a76 0b3e 576e 923d d830 1ebd
00000330: 98b7 62bd 8424 80be 0f68 a0bc 0358 cc3c
00000340: 1af7 3fbd 3cfe 85bd 5ca9 aebd 421b 173e
00000350: 0bee 223d 8c51 2d3c 2bf3 1c3e 24c6 69bd
00000360: c8a0 e0bd 14af 083d fff3 65bd 769e 343e
00000370: a7f4 6f3e 14b0 56be 2009 5cbe 9c1d 4cbe
00000380: ff30 8ebc eff8 12bd b819 803d 213a c63d
00000390: 4281 cbbb 98ef 173d 6b5c 6fbe 9e4a 543e
000003a0: e456 e537 f8c4 0b3d b1dc 58be e323 ca3d
000003b0: 19f9 82bd a53a 1e3e 8b96 04bd 0fca 893c
000003c0: 167f 09be b905 8e3b e4d7 f73d aa7d 07bd
000003d0: a417 873d ebf3 17be df73 c4bc eacb a53e
000003e0: de84 183e bd01 48be ac3c 22be 4d8d 96bd
000003f0: 5cdd 0b3e 1965 29be 3fcb 873e 96cb 943d

embedder.emb_rnn.bias_ih_l2 f4 [60]
0.972705 0.97071636 0.9962766 1.0213684 1.0209943 1.0121388 0.9670117 1.0041634
1.0234971 1.0236083 0.9813821 0.9934657 1.0002275 1.0208137 1.0199102 1.0190114
0.96678305 0.9693769 1.0215983 0.96805114 1.0237316 1.0291497 0.9915742 0.98526126
0.972619 0.984445 1.0306426 0.98397684 0.9771025 0.97556996 1.0112947 1.0065677
0.99636656 0.9796072 1.0298984 0.97960955 1.0323894 1.0124167 0.97748184 1.0301107
0.9724033 0.9675031 0.9971817 1.0222944 1.0216483 1.0130408 0.9670506 1.005439
1.0233066 1.0252596 0.98953426 0.99320376 1.0000522 1.02097 1.01964 1.0179187
0.96677333 0.96895176 1.0221057 0.9684725
00000000: 3203 793f de80 783f fc0b 7f3f 33bc 823f
00000010: f1af 823f c48d 813f 148e 773f 6d88 803f
00000020: f401 833f 9905 833f db3b 7b3f c553 7e3f
00000030: 7407 803f 06aa 823f 6b8c 823f f76e 823f
00000040: 187f 773f 1629 783f bcc3 823f 33d2 773f
00000050: a309 833f 2dbb 833f cfd7 7d3f 153a 7c3f
00000060: 8ffd 783f 9604 7c3f 19ec 833f e8e5 7b3f
00000070: 6423 7a3f f4be 793f 1b72 813f 36d7 803f
00000080: e111 7f3f 8ac7 7a3f b6d3 833f b1c7 7a3f
00000090: 5625 843f df96 813f 403c 7a3f abda 833f
000000a0: 6cef 783f 48ae 773f 4d47 7f3f 8bda 823f
000000b0: 5fc5 823f 52ab 813f a190 773f 3ab2 803f
000000c0: b6fb 823f b53b 833f 1e52 7d3f 9a42 7e3f
000000d0: b601 803f 25af 823f 9083 823f 294b 823f
000000e0: 757e 773f 390d 783f 5cd4 823f d0ed 773f

embedder.emb_rnn.bias_hh_l2 f4 [60]
0.972705 0.97071636 0.9962766 1.0213684 1.0209943 1.0121388 0.9670117 1.0041634
1.0234971 1.0236083 0.9813821 0.9934657 1.0002275 1.0208137 1.0199102 1.0190114
0.96678305 0.9693769 1.0215983 0.96805114 1.0237316 1.0291497 0.9915742 0.98526126
0.972619 0.984445 1.0306426 0.98397684 0.9771025 0.97556996 1.0112947 1.0065677
0.99636656 0.9796072 1.0298984 0.97960955 1.0323894 1.0124167 0.97748184 1.0301107
0.972421 0.96753335 0.99650985 1.0227062 1.0221027 1.0130355 0.9670545 1.0052925
1.0233569 1.0254356 0.98923683 0.993017 1.0000824 1.0211476 1.0197287 1.0180998
0.9667337 0.97036207 1.0225013 0.9685042
00000000: 3203 793f de80 783f fc0b 7f3f 33bc 823f
00000010: f1af 823f c48d 813f 148e 773f 6d88 803f
00000020: f401 833f 9905 833f db3b 7b3f c553 7e3f
00000030: 7407 803f 06aa 823f 6b8c 823f f76e 823f
00000040: 187f 773f 1629 783f bcc3 823f 33d2 773f
00000050: a309 833f 2dbb 833f cfd7 7d3f 153a 7c3f
00000060: 8ffd 783f 9604 7c3f 19ec 833f e8e5 7b3f
00000070: 6423 7a3f f4be 793f 1b72 813f 36d7 803f
00000080: e111 7f3f 8ac7 7a3f b6d3 833f b1c7 7a3f
00000090: 5625 843f df96 813f 403c 7a3f abda 833f
000000a0: 95f0 783f 44b0 773f 451b 7f3f 09e8 823f
000000b0: 43d4 823f 26ab 813f e290 773f 6dad 803f
000000c0: 5cfd 823f 7941 833f a03e 7d3f 5d36 7e3f
000000d0: b302 803f f7b4 823f 7886 823f 1851 823f
000000e0: dc7b 773f a669 783f 53e1 823f e4ef 773f

embedder.emb_linear.weight f4 [20, 20]
0.26231512 0.295429 -0.043541063 0.33320004 -0.37327126 0.0074078664 0.025090609 0.07156073
0.16335335 0.1073912 0.34045193 -0.24011998 0.049564123 0.1392252 -0.33001113 -0.17259178
-0.33009353 -0.16701151 -0.22987984 0.271928 -0.20268641 0.09027243 -0.18373159 0.2365697
-0.018459465 -0.27554896 -0.14330845 -0.25718185 0.11386495 0.32604182 0.11031513 0.08613597
-0.31742302 0.025077913 0.161539 0.0052583483 -0.3932198 -0.26092076 -0.38526535 0.0499872
0.10482434 0.17852943 0.22154808 -0.2780684 0.09986142 0.35679835 -0.18387274 -0.40542364
-0.12848438 -0.1855756 0.27105355 0.2763797 0.34274617 0.2455594 0.0048746695 -0.22328494
0.049867164 -0.09184508 -0.19030055 -0.3455232 0.35957694 -0.32686892 -0.0764802 0.13584958
-0.19743447 -0.06981321 -0.2956709 0.11780512 0.3831568 0.15700309 -0.022208879 0.3060309
0.34312606 0.3555673 -0.11071528 0.16720939 0.124529816 0.11254869 0.31376854 -0.13050632
-0.23877358 0.18870354 0.11786596 -0.16140579 0.27816135 -0.009278878 0.3777419 -0.2799576
-0.1350705 0.20918629 -0.18468566 0.020184675 -0.0543368 0.29833916 -0.32003173 -0.24050577
-0.28710333 0.07982042 0.013175211 -0.14300928 -0.31501114 0.17424369 -0.28787917 -0.279895
-0.08606354 -0.4146528 -0.15159611 0.01694701 0.18376122 -0.024372661 0.34038648 -0.10018799
0.11986537 -0.27797142 -0.07878984 0.27970248 0.23095049 -0.06287444 -0.22350833 -0.1572013
-0.29983094 0.20379223 0.37465784 -0.035980623 -0.21393228 0.3965512 -0.1338567 -0.06398333
-0.24829529 0.3263824 0.07832988 -0.3723894 0.37674424 0.24829121 0.15423511 0.39440018
0.09510421 -0.17215343 -0.13797411 0.21253966 -0.18686433 0.2801064 -0.18867168 0.34515035
-0.04772619 0.32324284 -0.1902656 0.14186361 0.3041311 0.119863786 -0.024777438 -0.20754293
-0.15244599 0.17837201 0.34877664 -0.18658552 -0.16049716 -0.21535514 0.055082437 -0.14009552
0.13541195 -0.1449079 -0.101984836 0.34780693 -0.19237712 -0.33060408 0.05291101 -0.29026514
-0.11973037 -0.30352613 -0.27884337 0.035862606 0.17802909 -0.09723445 -0.3702733 -0.3115467
-0.024244994 0.18880391 -0.09317217 0.16650164 0.05134072 0.31276137 0.14366171 0.034006935
-0.23113409 -0.0663256 0.2966221 0.11436869 -0.28480113 0.27865338 0.18347941 -0.24122718
-0.0008736625 0.10379201 0.13172 -0.08728846 -0.039295524 0.20956154 -0.023013176 -0.21049736
0.26943955 0.2623189 -0.1777884 -0.3687668 -0.20516935 -0.29846728 -0.07874988 -0.35772
-0.30699536 0.10143665 -0.060512464 -0.069725096 0.040826555 0.10194932 0.26056778 -0.06908436
-0.039196804 -0.37458646 -0.39151525 -0.28006276 0.19406432 0.18381579 0.12415816 0.19744766
-0.069927715 -0.27371827 0.2679047 -0.10118527 -0.079566576 -0.25455448 0.2549512 0.28457558
-0.19757418 0.3219015 0.23676614 0.095577195 -0.19508222 -0.26631343 0.04354448 0.16069567
-0.28019676 0.26602414 0.21373858 -0.020051355 -0.4140209 -0.33065626 0.24832167 0.010293284
-0.09033258 -0.2765299 -0.20465122 0.2976275 0.15769042 0.0035928283 0.2686033 -0.2546489
00000000: 2b4e 863e 7842 973e 1d58 32bd 3299 aa3e
00000010: 691d bfbe b0bd f23b d28a cd3c 6f8e 923d
00000020: 1a46 273e ebef db3d b74f ae3e 03e2 75be
00000030: c003 4b3d 0d91 0e3e 38f7 a8be e6bb 30be
00000040: 0502 a9be 1105 2bbe 9f65 6bbe 263a 8b3e
00000050: 078d 4fbe c0e0 b83d 2224 3cbe 543f 723e
00000060: 4e38 97bc c114 8dbe 73bf 12be 57ad 83be
00000070: 0732 e93d f4ee a63e e6ec e13d 0e68 b03d
00000080: 4585 a2be 3270 cd3c 7b6a 253e 394e ac3b
00000090: 1b54 c9be 6897 85be 8041 c5be 61bf 4c3d
000000a0: 25ae d63d 6bd0 363e 80dd 623e fb5e 8ebe
000000b0: 2584 cc3d 46ae b63e 2349 3cbe b093 cfbe
000000c0: 6991 03be 8807 3ebe 88c7 8a3e a481 8d3e
000000d0: 6d7c af3e ec73 7b3e b1bb 9f3b cfa4 64be
000000e0: 8341 4c3d 4619 bcbd 26de 42be 6be8 b0be
000000f0: 781a b83e 5d5b a7be a7a1 9cbd 271c 0b3e
00000100: 432c 4abe 3afa 8ebd 2d62 97be d043 f13d
00000110: 212d c43e 6bc5 203e 65ef b5bc 15b0 9c3e
00000120: 38ae af3e eb0c b63e b1be e2bd f038 2b3e
00000130: 7d09 ff3d ed7f e63d 45a6 a03e 73a3 05be
00000140: 1081 74be 803b 413e b563 f13d 8f47 25be
00000150: 2a6b 8e3e 6f06 18bc 6367 c13e 9a56 8fbe
00000160: ec4f 0abe ee34 563e 3d1e 3dbe 555a a53c
00000170: 4490 5ebd e9bf 983e 33db a3be 2547 76be
00000180: 35ff 92be e378 a33d d7dc 573c 0671 12be
00000190: 2449 a1be f06c 323e e664 93be 664e 8fbe
000001a0: 1542 b0bd 5f4d d4be 033c 1bbe 75d4 8a3c
000001b0: e72b 3c3e 2da9 c7bc 2347 ae3e 5c2f cdbd
000001c0: fa7b f53d 4552 8ebe 915c a1bd 2a35 8f3e
000001d0: 497e 6c3e 50c4 80bd 5edf 64be 61f9 20be
000001e0: 7183 99be e9ae 503e 27d3 bf3e 6b60 13bd
000001f0: 1011 5bbe c208 cb3e bb11 09be b109 83bd
00000200: 1f41 7ebe 981b a73e 6b6b a03d d3a9 bebe
00000210: 9fe4 c03e 0d40 7e3e cfef 1d3e d2ee c93e
00000220: ffc5 c23d fd48 30be 1649 0dbe ffa3 593e
00000230: 5d59 3fbe 1b6a 8f3e 2633 41be 8cb7 b03e
00000240: 8a7c 43bd 1680 a53e fcd4 42be b244 113e
00000250: 12b7 9b3e 257b f53d 0efa cabc 2286 54be
00000260: cd1a 1cbe 27a7 363e da92 b23e 4610 3fbe
00000270: 5e59 24be 0f86 5cbe 1f9e 613d 3375 0fbe
00000280: 6ea9 0a3e bd62 14be 6ddd d0bd c013 b23e
00000290: 82fe 44be f044 a9be 37b9 583d a29d 94be
000002a0: 3235 f5bd c767 9bbe 8fc4 8ebe abe4 123d
000002b0: 424d 363e db22 c7bd 7694 bdbe 0d83 9fbe
000002c0: 709d c6bc d055 413e 0dd1 bebd 687f 2a3e
000002d0: a64a 523d 4222 a03e 0e1c 133e db4a 0b3d
000002e0: 6aae 6cbe b7d5 87bd dade 973e 223a ea3d
000002f0: 74d1 91be a8ab 8e3e 07e2 3b3e 4204 77be
00000300: 7f06 65ba e890 d43d 9ce1 063e 4bc4 b2bd
00000310: 58f4 20bd 4d97 563e 2186 bcbc 9f8c 57be
00000320: fbf3 893e aa4e 863e 2a0e 36be 01cf bcbe
00000330: ea17 52be b4d0 98be 9e47 a1bd 1327 b7be
00000340: 7f2e 9dbe 05be cf3d ebdb 77bd 08cc 8ebd
00000350: bf39 273d ceca d03d 2469 853e 1a7c 8dbd
00000360: d48c 20bd ccc9 bfbe b074 c8be 6364 8fbe
00000370: ccb8 463e 353a 3c3e a246 fe3d b82f 4a3e
00000380: 4336 8fbd cd24 8cbe ce2a 893e 393a cfbd
00000390: cdf3 a2bd f754 82be f788 823e e4b3 913e
000003a0: e350 4abe 46d0 a43e d372 723e fabd c33d
000003b0: a2c3 47be 3c5a 88be b25b 323d 688d 243e
000003c0: f375 8fbe 5134 883e 49de 5a3e bd42 a4bc
000003d0: 8cfa d3be c74b a9be 0948 7e3e 2aa5 283c
000003e0: 4a00 b9bd 5495 8dbe 1790 51be a262 983e
000003f0: 9979 213e a875 6b3b 5f86 893e 5761 82be

embedder.emb_linear.bias f4 [20]
-0.023347734 -0.0131864725 -0.018709766 0.029706553 0.030779688 -0.029711809 0.012616151 0.028319338
0.0021531235 -0.028243124 -0.017968051 -0.011293946 -0.026685314 0.011902752 -0.008393843 -0.013441855
0.03044708 0.029633705 0.030045953 -0.029168146
00000000: bf43 bfbc 130c 58bc 3945 99bc 285b f33c
00000010: af25 fc3c 2e66 f3bc f9b3 4e3c f5fd e73c
00000020: 6b1b 0d3b 205e e7bc bc31 93bc 3e0a 39bc
00000030: 299b dabc c303 433c 5486 09bc 3a3b 5cbc
00000040: 286c f93c 62c2 f23c ee22 f63c 09f2 eebc
