Output/test_decosntLSTM1/model.pt (torch, 30456 bytes, 65 tensors)

embedder.emb_rnn.weight_ih_l0 f4 [24, 6]
0	0xbdac79b5	-0.08421651
1	0x3e64d573	0.2234705
2	0x3f0dc63f	0.55380625
3	0xbe2eb864	-0.17062527
4	0xbfae421e	-1.3613927
5	0x3db22ea6	0.08700304
6	0x3ebc08d0	0.36725473
7	0x3f04485e	0.51672924
8	0x3f309c0e	0.6898812
9	0xbd0e9db4	-0.034818366
10	0xbfb842be	-1.4395368
11	0x3e2ec662	0.17067865
12	0x3e3ee1f8	0.18640888
13	0x3f02fe7f	0.5116958
14	0xbefe756b	-0.49698958
15	0xbf9af1c1	-1.2105027
16	0xbf7a38bc	-0.9774282
17	0xbf8852d1	-1.0650274
18	0x3e3380f5	0.17529662
19	0x3df11016	0.11770646
20	0xbe1bfaba	-0.15232363
21	0xbe5752d3	-0.21027689
22	0xbefc7003	-0.49304208
23	0xbf20cac5	-0.628094
24	0x3edffdda	0.4374836
25	0xbf139b8e	-0.5765923
26	0xbd913095	-0.070893444
27	0xbfb55fd3	-1.4169868
28	0xbf77f268	-0.9685426
29	0x4020f9f8	2.515257
30	0x3e2fdf5b	0.17175047
31	0xbebc0cb2	-0.36728436
32	0xbd6bcbb0	-0.0575673
33	0x3d4395dd	0.047750343
34	0x3f2b03df	0.6680278
35	0x3ef3f266	0.47645873
36	0x3e470f75	0.1943949
37	0xbf5944b3	-0.8487045
38	0xbe7dd4d5	-0.2478822
39	0xbd4edad6	-0.050501667
40	0xbf06ff1f	-0.52733034
41	0x3d80b02c	0.06283602
42	0xbe37a293	-0.17933111
43	0x3e28d601	0.16487886
44	0xbd03eb2a	-0.03220669
45	0xbe6cc3e8	-0.23121607
46	0xbf5fc3ed	-0.87408334
47	0xbf2259c5	-0.6341823
48	0xbb92529c	-0.004465414
49	0xbf8b3414	-1.0875268
50	0xbe2241ff	-0.15845488
51	0xbf0eafd3	-0.55737036
52	0xbfbe23e0	-1.4854698
53	0xbf03f140	-0.51539993
54	0xbe9b3038	-0.30310225
55	0xbf1af8d4	-0.6053593
56	0xbf0af45f	-0.5427913
57	0xbf3bf364	-0.7341826
58	0xbee9c829	-0.45660523
59	0xbdbdac24	-0.09261349
60	0xbe55a293	-0.20862798
61	0xbf4e7b7f	-0.8065719
62	0xbef9ae2b	-0.48765692
63	0x3f6ec0d7	0.93263
64	0xbf341351	-0.70341974
65	0x3f3d6931	0.73988634
66	0x3d686749	0.056739125
67	0xbf862188	-1.0478983
68	0xbf13c4ba	-0.57722056
69	0xbe6b8000	-0.22998047
70	0xbe000fca	-0.12506023
71	0xbed4cf7f	-0.41564557
72	0xbe98e451	-0.29861692
73	0x3ce12050	0.027481228
74	0xbea47f98	-0.32128596
75	0xbeca6fb4	-0.39538348
76	0xbf70c5b1	-0.94051653
77	0xbf0ace79	-0.542213
78	0x3e33fcbd	0.17576881
79	0x3f11347f	0.5672073
80	0x3c1f1297	0.009709022
81	0x3ec62bd6	0.3870532
82	0xbe8274ab	-0.25479636
83	0x3d6bb1c9	0.057542596
84	0xbdf4d06e	-0.11953817
85	0x3ed29a95	0.41133562
86	0xbe93a586	-0.28837222
87	0xbf3852eb	-0.7200152
88	0xbf349289	-0.70536095
89	0xbf6ac528	-0.91707087
90	0xbd026cb0	-0.031841934
91	0xbe7a01fb	-0.24414818
92	0xbefdf1e5	-0.49598613
93	0xbd87671e	-0.06611465
94	0xbf4a8922	-0.791155
95	0xbf28d26d	-0.65946084
96	0x3dd906b7	0.10596984
97	0x3e5af784	0.21383482
98	0x3e5076a7	0.20357762
99	0xbfde28aa	-1.735616
100	0x3ec0af61	0.37633803
101	0xbfdb08ee	-1.71121
102	0xbec077a7	-0.37591287
103	0xbc884511	-0.016634496
104	0x3df5f218	0.12009066
105	0xbe82910d	-0.2550129
106	0x3def420d	0.1168252
107	0x3f0bc5f6	0.5459894
108	0xbd9997cd	-0.07499657
109	0x3f8919cf	1.0711001
110	0xbe1e01e9	-0.15430416
111	0xbdb46642	-0.08808567
112	0xbf408c88	-0.75214434
113	0xbe0e67eb	-0.13906829
114	0x3e3e10f0	0.18561149
115	0x3f52b8a8	0.82313013
116	0x3dff9922	0.1248038
117	0xbd8492b3	-0.06473293
118	0xbf2254e2	-0.6341077
119	0xbe5c7b3b	-0.21531384
120	0xbe17f6e3	-0.14840274
121	0x3f8b3733	1.087622
122	0x3d9d02d7	0.07666557
123	0xbb1583b6	-0.0022814102
124	0xbf7426cb	-0.95371693
125	0xbee96c36	-0.4559037
126	0x3df9512d	0.12173686
127	0x3f73aef1	0.95188814
128	0x3c69cae6	0.014269566
129	0xbea6f317	-0.32607338
130	0xbf4eebda	-0.8082863
131	0xbe5dac88	-0.21647847
132	0x3eb8fe82	0.36131674
133	0xbc3b4ed8	-0.011432372
134	0xbcea7531	-0.028620334
135	0xbe5a4cf4	-0.21318418
136	0xbd6a5a72	-0.05721516
137	0x3f5d5b4f	0.8646745
138	0x3ec8b442	0.39200026
139	0xbfa1d8ca	-1.2644284
140	0xbe2f8554	-0.17140704
141	0x3e9cde2f	0.30638263
142	0x3f83bac5	1.0291373
143	0x3f030790	0.51183414

embedder.emb_rnn.weight_hh_l0 f4 [24, 6]
0	0x3e0a7052	0.1351941
1	0xbd94d6db	-0.07267543
2	0x3eee372b	0.46526465
3	0xbd5bc381	-0.053653244
4	0x3e5579e7	0.20847283
5	0x3e141900	0.14462662
6	0xbed16a93	-0.40901622
7	0x3c9c0af8	0.019048199
8	0xbe460145	-0.19336422
9	0xbd51bf62	-0.051207907
10	0x3db6a24e	0.08917676
11	0x3e04094f	0.12894176
12	0xbf019f4e	-0.50633705
13	0xbf72c6ff	-0.94834894
14	0xbf35f37a	-0.7107464
15	0x3c52f9a8	0.0128769055
16	0xbefc1233	-0.49232635
17	0xbf07f643	-0.5311014
18	0xbe5221ea	-0.2052075
19	0xbf046cb5	-0.51728374
20	0xbf033110	-0.5124674
21	0xbefcab79	-0.49349573
22	0xbf2b3e4e	-0.66891944
23	0xbe8b7715	-0.2723929
24	0x3ec71c1a	0.38888627
25	0x3e3c0bb6	0.18363842
26	0x3ccff58f	0.025385646
27	0x3e0b1637	0.13582693
28	0x3ed9bb95	0.42525926
29	0x3efc26f4	0.4924847
30	0xbd4cf95f	-0.050042506
31	0xbed7eaa3	-0.421712
32	0xbe44907c	-0.19195741
33	0x3ddda761	0.108229406
34	0xbe489028	-0.19586241
35	0xbe61d139	-0.22052468
36	0x3b341c23	0.002748259
37	0x3e98c959	0.29841116
38	0x3bc3ed58	0.0059792213
39	0xbda74630	-0.08167684
40	0xbef72c87	-0.4827616
41	0xbd64c207	-0.0558491
42	0xbf185bd8	-0.5951514
43	0xbedf23f1	-0.4358211
44	0xbf3d8bad	-0.74041253
45	0xbe0699da	-0.13144627
46	0xbedbf156	-0.42957562
47	0xbf1112d0	-0.5666933
48	0xbd948dc5	-0.07253603
49	0xbe045446	-0.12922773
50	0xbe9d96de	-0.30779165
51	0xbdffbdcd	-0.124873735
52	0xbe761737	-0.24032293
53	0xbe90e0ae	-0.28296417
54	0x3ef41e81	0.47679523
55	0x3e8d5a65	0.27608028
56	0xbe451952	-0.1924794
57	0x3d6a9768	0.0572733
58	0xbd837266	-0.06418304
59	0x3e1c18f1	0.1524389
60	0xbe8678a2	-0.2626391
61	0xbe896ca0	-0.26840687
62	0xbf04f288	-0.51932573
63	0xbe58b405	-0.21162422
64	0xbeca8e28	-0.39561582
65	0x3f6dbcbd	0.92866117
66	0xbe572aef	-0.21012472
67	0xbd413ebf	-0.04717898
68	0xbf325eec	-0.6967609
69	0xbe0ccf45	-0.13750942
70	0xbd9eeadc	-0.077596396
71	0xbe8d3cb4	-0.27585375
72	0xbeec62a9	-0.46169022
73	0xbe591714	-0.2120021
74	0xbe9d7eac	-0.30760705
75	0xbeca285f	-0.39483926
76	0xbdfc1f60	-0.12310672
77	0xbeda7596	-0.42667836
78	0xbdb7423e	-0.089481816
79	0x3cea1253	0.02857319
80	0xbeab9539	-0.33512285
81	0xbea01437	-0.31265423
82	0xbe931afe	-0.2873153
83	0xbeececde	-0.46274465
84	0xbe9a0546	-0.30082148
85	0x3dc38a90	0.09547913
86	0xbebf7806	-0.37396258
87	0x3ec08ad7	0.37605926
88	0xbe82458c	-0.25443685
89	0xbe38cc7b	-0.18046753
90	0xbed7befa	-0.4213789
91	0x3e489920	0.19589663
92	0x3dc6a59f	0.096995585
93	0xbdcc19e1	-0.099658735
94	0xbc77c4fb	-0.015122647
95	0x3e312650	0.17299771
96	0x3f33eb6d	0.70281106
97	0x3efeb65f	0.49748513
98	0x3c1e0949	0.009645768
99	0xbef0423b	-0.4692553
100	0xbf0c8a20	-0.5489826
101	0xbe759fd9	-0.23986758
102	0x3d9cf486	0.07663827
103	0xbd2cb7b0	-0.042167366
104	0xbe9531f8	-0.29139686
105	0x3e678189	0.22608007
106	0x3d0e3157	0.034715023
107	0xbd2f661a	-0.04282198
108	0xbb60108b	-0.0034189548
109	0xbd5b5c49	-0.053554807
110	0xbe7833a0	-0.24238443
111	0xbe8f7d8f	-0.2802548
112	0xbe4763db	-0.19471686
113	0xbc58ab10	-0.013224378
114	0x3e4e74fd	0.20161815
115	0x3e59db48	0.21275055
116	0x3f0e4653	0.55576056
117	0x3d9a17e6	0.075240895
118	0xbd42ec23	-0.04758848
119	0xbd460ca3	-0.048351895
120	0xbd1ee864	-0.038795844
121	0xbdd705ef	-0.104991786
122	0x3db07bca	0.08617361
123	0x3e6cd17d	0.23126788
124	0xbf22dc67	-0.6361756
125	0xbe65fba9	-0.22459282
126	0x3d9a014a	0.07519777
127	0xbd983443	-0.07431843
128	0xbe1f14db	-0.155353
129	0xbd81f431	-0.06345404
130	0xbe223324	-0.15839821
131	0xbe9633e8	-0.29336476
132	0x3f18a273	0.5962288
133	0x3f0e927c	0.5569227
134	0x3ee7efa3	0.45300016
135	0x3e120f15	0.14263566
136	0x3eca4366	0.39504546
137	0xbc5c306e	-0.013439281
138	0xbe802b32	-0.25032955
139	0xbf0166a4	-0.5054724
140	0xbcfebfa0	-0.031097233
141	0xbdc9077b	-0.0981588
142	0xbeb5a23f	-0.35475346
143	0x3d79caa4	0.06098427

embedder.emb_rnn.bias_ih_l0 f4 [24]
0	0x3f8e10d2	1.1098883
1	0x3f4c147d	0.7971876
2	0x3ee930d2	0.4554506
3	0x3f12a832	0.57287896
4	0x3fb3e059	1.405284
5	0x3f55e030	0.8354521
6	0x3f3d8254	0.7402699
7	0x3f176742	0.59141934
8	0x3f4362f8	0.7632289
9	0x3f907623	1.1286052
10	0x3f804b3e	1.0022962
11	0x3f2fd17a	0.6867901
12	0x3f497dea	0.78707755
13	0x3f4600db	0.77345055
14	0x3f417a23	0.7557699
15	0x3f304def	0.6886892
16	0x3faf3139	1.3686897
17	0x3f6c29c7	0.9225125
18	0x3f79325a	0.97342455
19	0x3f97a09f	1.1845893
20	0x3f5d6384	0.86479974
21	0x3f524032	0.82129204
22	0x3f9661e5	1.1748625
23	0x3f41c893	0.75696677

embedder.emb_rnn.bias_hh_l0 f4 [24]
0	0x3f8e10d2	1.1098883
1	0x3f4c147d	0.7971876
2	0x3ee930d2	0.4554506
3	0x3f12a832	0.57287896
4	0x3fb3e059	1.405284
5	0x3f55e030	0.8354521
6	0x3f3d8254	0.7402699
7	0x3f176742	0.59141934
8	0x3f4362f8	0.7632289
9	0x3f907623	1.1286052
10	0x3f804b3e	1.0022962
11	0x3f2fd17a	0.6867901
12	0x3f497dea	0.78707755
13	0x3f4600db	0.77345055
14	0x3f417a23	0.7557699
15	0x3f304def	0.6886892
16	0x3faf3139	1.3686897
17	0x3f6c29c7	0.9225125
18	0x3f79325a	0.97342455
19	0x3f97a09f	1.1845893
20	0x3f5d6384	0.86479974
21	0x3f524032	0.82129204
22	0x3f9661e5	1.1748625
23	0x3f41c893	0.75696677

embedder.emb_rnn.weight_ih_l1 f4 [24, 6]
0	0xbf505e39	-0.8139377
1	0xbee3017f	-0.4433708
2	0xbf436d3e	-0.76338565
3	0xbf7b2721	-0.9810658
4	0x3fc977e6	1.5739715
5	0x4049b56a	3.1516976
6	0xbe031e0f	-0.12804435
7	0x3bfdb800	0.007742882
8	0x3f85b40f	1.0445575
9	0xbe746b4b	-0.23869054
10	0x3eb13ab8	0.3461511
11	0x3f2aa5b4	0.6665909
12	0xbefb975d	-0.4913892
13	0xbe8401f4	-0.2578274
14	0x3f3e9389	0.7444387
15	0xbcb43a1b	-0.022000363
16	0xbe2b6d94	-0.1674102
17	0x3ebe35cd	0.37150422
18	0xbf87b676	-1.0602558
19	0xbf04693a	-0.51723063
20	0x3fccbe8a	1.5995648
21	0xbf285a68	-0.6576295
22	0x4017af29	2.370066
23	0x3fed1b83	1.8524021
24	0xbe6bd6d7	-0.23031174
25	0x3e6c2880	0.23062325
26	0x3e6b31f4	0.22968274
27	0x3e613ac6	0.21995077
28	0x3e51ad86	0.2047635
29	0xbe3dd8eb	-0.18539779
30	0x3e2cb3d6	0.16865477
31	0x3f458e2d	0.7717007
32	0x3f0be499	0.5464569
33	0x3f4f6668	0.81015635
34	0x3e86e22c	0.2634443
35	0x3f1de26d	0.61673623
36	0xbe59b138	-0.2125901
37	0xbf579ab7	-0.8422045
38	0x3f5ac55e	0.8545741
39	0x3f001f66	0.5004791
40	0xbd8bdb28	-0.0682891
41	0xbe6a2cee	-0.22868702
42	0x3e4d6bbb	0.20060627
43	0xbec6406e	-0.3872103
44	0xbe287095	-0.16449197
45	0xbe52bb21	-0.20579197
46	0x3eaf358f	0.3422055
47	0x3ea8f834	0.33001864
48	0xbf3bc650	-0.73349476
49	0xbf8d97b3	-1.106192
50	0xbd6267ea	-0.05527488
51	0xbdedd193	-0.11612239
52	0xbee1f3f9	-0.4413145
53	0x3d6f3daa	0.058408417
54	0xbe570eeb	-0.21001785
55	0xbe5f40e7	-0.21802102
56	0x3f2f503d	0.6848181
57	0xbe106d85	-0.14104278
58	0x3d0727f6	0.032997094
59	0xbed2003e	-0.4101581
60	0x3e7675ed	0.24068423
61	0xbd9c5b1f	-0.076345675
62	0xbcfe67f7	-0.031055434
63	0xbec3cb99	-0.3824127
64	0xbede52b9	-0.43422487
65	0x3e3a63ee	0.18202183
66	0xbeab7353	-0.33486423
67	0xbea22991	-0.31672338
68	0xbd31ce6b	-0.043409746
69	0xbef29bc1	-0.47384456
70	0xbd9d894d	-0.07692204
71	0xbebf6221	-0.37379554
72	0x3f200908	0.6251378
73	0x3f1bb781	0.6082688
74	0x3f51dd8a	0.81978667
75	0x3f5db71e	0.8660754
76	0x3fcfd751	1.6237584
77	0x3f9ab421	1.2086221
78	0xbe29a272	-0.16565874
79	0xbf21c2ff	-0.63188165
80	0xbd8f2799	-0.069899745
81	0x3d317071	0.043320123
82	0x3c232652	0.009957867
83	0xbec65d47	-0.3874304
84	0xbf3f5763	-0.74742717
85	0xbf4424d6	-0.7661871
86	0xbf6cec26	-0.92547834
87	0xbeaeda62	-0.34150988
88	0x3d866885	0.06562904
89	0x3e9537c3	0.29144105
90	0xbf98cb19	-1.193698
91	0xbf8d6a53	-1.1048073
92	0xbf3ec304	-0.7451632
93	0xbfa3a51b	-1.2784761
94	0x3f999c44	1.2000813
95	0x3f271a9d	0.65274984
96	0xbe4019d4	-0.18759853
97	0xbe764791	-0.24050738
98	0x3ceace8e	0.028662946
99	0xbed45d15	-0.41477266
100	0xbecc9e39	-0.39964464
101	0x3ecdb510	0.40177202
102	0xbedeedfb	-0.4354094
103	0xbe8582b9	-0.26076296
104	0xbe940969	-0.2891343
105	0xbf011f65	-0.5043853
106	0xbe09259c	-0.13393253
107	0x3e5beee2	0.21477845
108	0xbf28cd19	-0.65937954
109	0xbe8bbf97	-0.2729461
110	0xbe5458e0	-0.20737028
111	0xbf90b7c7	-1.1306084
112	0xbdb781e6	-0.08960323
113	0x3f5f447e	0.87213886
114	0x3ec71024	0.38879502
115	0xbdf81b51	-0.12114585
116	0x3e8e1026	0.27746695
117	0xbec1a733	-0.37822875
118	0xbd26f8cb	-0.04076461
119	0x3c8585bf	0.016299127
120	0x3e89bf30	0.26903677
121	0x3f753adb	0.9579293
122	0x3f9a67a5	1.206288
123	0x3efc231a	0.4924553
124	0x3f98c3d2	1.193476
125	0x3f7d9388	0.9905324
126	0xbf015c22	-0.5053121
127	0xbf5fc543	-0.8741037
128	0xbe9dbf6c	-0.30810106
129	0xbdaed626	-0.08536939
130	0x3eb2ca7a	0.34920102
131	0x3ed18c17	0.40927193
132	0x3e3537d6	0.17697081
133	0x3e4640e7	0.19360696
134	0x3f09a3e9	0.5376573
135	0x3ef2b4e6	0.4740364
136	0xbe3ce8fd	-0.18448253
137	0xbec4e2d7	-0.38454315
138	0x3cf68e2c	0.03009709
139	0x3e51a438	0.204728
140	0x3fa53e09	1.2909557
141	0x3f2e860d	0.68173295
142	0x3f982523	1.1886333
143	0x3f875ea0	1.0575752

embedder.emb_rnn.weight_hh_l1 f4 [24, 6]
0	0x3f5fa39f	0.8735904
1	0x3f4f2d18	0.8092818
2	0x3fa495d0	1.2858219
3	0xc00dc647	-2.215227
4	0x3f14d203	0.5813295
5	0x4083e2f4	4.1214542
6	0xbebb2d38	-0.36557937
7	0x3d1b2462	0.037876494
8	0x3e9fb1ab	0.31190237
9	0xbecfa70c	-0.40557134
10	0xbf230b51	-0.6368914
11	0xbd23503c	-0.03987144
12	0x3e6b7848	0.22995102
13	0xbec8c077	-0.3920934
14	0xbf16ed94	-0.58956265
15	0xbd30b5d6	-0.043142162
16	0xbf023d4c	-0.5087478
17	0xbe83d09f	-0.25745103
18	0x3f735535	0.9505189
19	0x3fce3f73	1.6113113
20	0xbf084342	-0.5322763
21	0x3d0c44e8	0.0342454
22	0x3fd51215	1.6646143
23	0x3ff79a6f	1.9344004
24	0x3ec895e9	0.39176872
25	0xbe1c1d70	-0.15245605
26	0x3cd8ac34	0.0264493
27	0xbd9d09a9	-0.07667858
28	0xbe83b805	-0.25726333
29	0x3e2872a3	0.1644998
30	0x3f08bd01	0.534134
31	0x3f1dd235	0.61648875
32	0xbee6914a	-0.45032722
33	0x3ee129bb	0.4397715
34	0x3f1088e8	0.564589
35	0x3ec6f813	0.3886114
36	0x3d75ab09	0.059977565
37	0x3ca72534	0.020403482
38	0xbfc15368	-1.5103579
39	0xbe7cb801	-0.24679567
40	0x3e49a10b	0.1969034
41	0xbda21a16	-0.07915132
42	0xbe10adf9	-0.14128865
43	0xbe545718	-0.20736349
44	0x3ebdd823	0.37078962
45	0x3e016359	0.12635554
46	0x3cb58d2a	0.022162039
47	0x3ea37950	0.31928492
48	0xbed5a1e1	-0.41725066
49	0xbf1ec056	-0.6201223
50	0x3df6cba6	0.120505616
51	0xbe78b874	-0.24289113
52	0xbf121cf9	-0.5707546
53	0x3e4c7ecd	0.19970246
54	0xbe506093	-0.2034934
55	0x3ea56c3c	0.3230914
56	0xbf935b36	-1.151221
57	0x3d82d04e	0.06387387
58	0x3d907e0a	0.0705529
59	0xbd162d99	-0.03666458
60	0xbe27116e	-0.16315243
61	0xbdfe0400	-0.12403107
62	0x3e865eeb	0.26244292
63	0xbe86ed00	-0.26352692
64	0xbe45557e	-0.19270894
65	0x3dc040e2	0.093873754
66	0xbe5abadb	-0.21360342
67	0x3d96b4f1	0.073587306
68	0x3d817269	0.0632065
69	0xbdc586fb	-0.09644886
70	0xbf2fbe3a	-0.6864964
71	0xbeaf9fc1	-0.3430157
72	0x3e06ee14	0.13176757
73	0xbbd34aee	-0.0064481413
74	0x3e308578	0.17238414
75	0x3e7c2cb0	0.24626422
76	0x3e0d4dfb	0.13799278
77	0x3e776133	0.24158172
78	0xbef13e76	-0.47117966
79	0xbf0671e4	-0.52517533
80	0x3e1c8ac7	0.15287314
81	0xbe36dbd3	-0.17857294
82	0x3d623daa	0.05523459
83	0xbebd435e	-0.3696546
84	0xbe8d3230	-0.27577353
85	0xbe96cd23	-0.29453382
86	0xbec51eba	-0.38500005
87	0x3c9412a5	0.018075297
88	0xbe97bf22	-0.2963801
89	0xbdc0cde6	-0.09414272
90	0x400d526c	2.2081556
91	0x4026c1a2	2.6055684
92	0xbf6caa0d	-0.92446977
93	0xbeb1e9c8	-0.34748673
94	0x401f7aea	2.491877
95	0x4048fde1	3.1404955
96	0x3e3a7404	0.18208319
97	0xbd235216	-0.039873205
98	0x3e0817f0	0.13290381
99	0xbe9e5bd4	-0.30929434
100	0x3ca4b3be	0.020105239
101	0x3d7400e0	0.059571147
102	0xbe093408	-0.13398755
103	0xbeac3f71	-0.33642152
104	0x3d0bc6c9	0.034125123
105	0xbed2b1de	-0.41151327
106	0xbe609821	-0.21933033
107	0xbdcbd14e	-0.09952031
108	0xbd548087	-0.051880386
109	0xbf751def	-0.957488
110	0x3f39eaf7	0.7262415
111	0xbda1e13b	-0.079042874
112	0xbefd85cb	-0.49516138
113	0x3e154d0f	0.14580177
114	0x3ca44765	0.020053575
115	0xbe68c286	-0.22730455
116	0xbe98aa61	-0.2981749
117	0x3d5c8e7b	0.053846817
118	0xbc818277	-0.01580928
119	0xbd9d973c	-0.07694861
120	0x3baa542e	0.0051980233
121	0x3ee7744a	0.4520591
122	0xbe1abc78	-0.15110958
123	0x3f2197cb	0.6312224
124	0x3ebb9ab5	0.3664147
125	0x3d1905b4	0.037358955
126	0x3debd9e7	0.11516171
127	0xbed2d9e7	-0.4118187
128	0x3de12545	0.10993437
129	0xbe9f8e37	-0.3116319
130	0xbe8069ee	-0.25080818
131	0x3f31f5c8	0.6951566
132	0x3df2c33e	0.11853646
133	0x3ec7a7e7	0.38995287
134	0x3e1c7f9f	0.15283059
135	0xbdf3b9dc	-0.11900684
136	0x3eecc828	0.46246457
137	0x3e9e4693	0.3091322
138	0x3efbe3b2	0.49197155
139	0x3f30128d	0.68778306
140	0x3e28add0	0.16472554
141	0x3e9d512b	0.3072599
142	0x3ec9ce58	0.3941524
143	0x3d0f31d6	0.034959637

embedder.emb_rnn.bias_ih_l1 f4 [24]
0	0x3ffa76a1	1.9567453
1	0x3faaa412	1.333132
2	0x3f719a97	0.9437651
3	0x3ffe8b8a	1.9886334
4	0x3f7bbf4e	0.9833878
5	0x3fdc1547	1.7193993
6	0x3f757aa3	0.95890254
7	0x3f732716	0.94981515
8	0x3f19816d	0.59963113
9	0x3f657305	0.8962863
10	0x3f77302e	0.9655789
11	0x3f409bcf	0.75237745
12	0x40144e17	2.3172662
13	0x3f8198f1	1.0124799
14	0x3f3f0a89	0.7462545
15	0x3f825f6a	1.0185368
16	0x3f801b88	1.0008402
17	0x3f6de3c7	0.92925686
18	0x3f2eb740	0.6824837
19	0x3f896382	1.0733492
20	0x401f7d2c	2.492015
21	0x3f6f50c0	0.9348259
22	0x3f874811	1.0568868
23	0x3fe33050	1.7749119

embedder.emb_rnn.bias_hh_l1 f4 [24]
0	0x3ffa76a1	1.9567453
1	0x3faaa412	1.333132
2	0x3f719a97	0.9437651
3	0x3ffe8b8a	1.9886334
4	0x3f7bbf4e	0.9833878
5	0x3fdc1547	1.7193993
6	0x3f757aa3	0.95890254
7	0x3f732716	0.94981515
8	0x3f19816d	0.59963113
9	0x3f657305	0.8962863
10	0x3f77302e	0.9655789
11	0x3f409bcf	0.75237745
12	0x40144e17	2.3172662
13	0x3f8198f1	1.0124799
14	0x3f3f0a89	0.7462545
15	0x3f825f6a	1.0185368
16	0x3f801b88	1.0008402
17	0x3f6de3c7	0.92925686
18	0x3f2eb740	0.6824837
19	0x3f896382	1.0733492
20	0x401f7d2c	2.492015
21	0x3f6f50c0	0.9348259
22	0x3f874811	1.0568868
23	0x3fe33050	1.7749119

embedder.emb_rnn.weight_ih_l2 f4 [24, 6]
0	0x3ea79592	0.327313
1	0x3eca06aa	0.3945821
2	0x3f8f7e53	1.1210426
3	0x3eb8de9f	0.36107346
4	0xbe10911f	-0.1411786
5	0xbf21e782	-0.6324388
6	0x3df77ec2	0.12084724
7	0xbda0f20d	-0.078586675
8	0xbf6e64bb	-0.9312245
9	0xbf1e1db7	-0.6176409
10	0x3e54c2a9	0.20777382
11	0xbe27af4f	-0.16375469
12	0x3f4747b6	0.778438
13	0x3f103c9d	0.5634249
14	0x3f5eeb1c	0.870775
15	0x3d14e492	0.036350794
16	0x3df1c859	0.118057914
17	0xbeea612c	-0.4577726
18	0xbe2a2027	-0.16613828
19	0xbeec29d8	-0.46125674
20	0xbebf9fc2	-0.37426573
21	0xbf1787e8	-0.5919175
22	0xbf2d63ea	-0.6773058
23	0xbf5e0746	-0.8672985
24	0xbef8897a	-0.48542386
25	0xbea1265f	-0.31474587
26	0xbf93f298	-1.1558409
27	0xbfbeed98	-1.4916258
28	0xbe791676	-0.24324974
29	0x3d149b1e	0.036280744
30	0xbe6b3117	-0.22967945
31	0xbef474b4	-0.47745287
32	0xbec75f64	-0.38939965
33	0xbe2e6b13	-0.17033033
34	0xbf22e0db	-0.6362435
35	0xbf67bab4	-0.9051926
36	0xbf1399e3	-0.5765669
37	0xbec86394	-0.39138472
38	0xbdec4238	-0.11536068
39	0xbefd469f	-0.49467942
40	0xbf70de38	-0.9408908
41	0xbe325da7	-0.17418538
42	0x3ebb7df8	0.36619544
43	0x3d76078d	0.060065795
44	0x3e6d3846	0.23165998
45	0x3e27b1d8	0.16376436
46	0xbe822cf4	-0.25424922
47	0x3d912ffe	0.07089232
48	0xbf06a4d3	-0.5259525
49	0xbf3ed31e	-0.7454089
50	0xbbfd425b	-0.0077288575
51	0xbf560b3c	-0.8361089
52	0xbf885c2a	-1.0653126
53	0xbf141b9e	-0.5785464
54	0xbea65c99	-0.3249252
55	0x3f0209f4	0.5079644
56	0xbcfbf7b7	-0.030757768
57	0xbe5c5bc8	-0.21519387
58	0x3d6747d2	0.056464978
59	0xbe4ee670	-0.20205092
60	0xbe5658aa	-0.2093226
61	0x3db9e2a3	0.09076431
62	0x3e30dc16	0.17271456
63	0x3e1e3d95	0.15453179
64	0x3e4b1758	0.19833124
65	0x3e03b88c	0.12863368
66	0xbdb30934	-0.0874199
67	0xbf084bbc	-0.5324056
68	0x3e561cdb	0.20909445
69	0x3e131567	0.14363633
70	0xbe2e90f9	-0.1704749
71	0xbe724961	-0.23660804
72	0xbf34bc2d	-0.70599633
73	0xbe47d50a	-0.19514862
74	0xbf50cc4e	-0.81561744
75	0xbf1c1e76	-0.6098398
76	0x3d4ef96a	0.05053083
77	0xbf8a4886	-1.0803382
78	0xbe965dd4	-0.2936846
79	0xbedc8feb	-0.4307855
80	0xbe34e89e	-0.17666861
81	0xbf054d62	-0.520712
82	0xbe1b0e86	-0.15142259
83	0x3d3e0a27	0.0463964
84	0xbd86f3b5	-0.06589452
85	0xbe3eaa40	-0.18619633
86	0xbf93e4b5	-1.1554171
87	0xbf0e65d1	-0.5562411
88	0xbd6a60fa	-0.05722139
89	0xbf6c4b03	-0.9230196
90	0x3e98a44d	0.29812852
91	0x3e78a12a	0.24280229
92	0x3e90f903	0.2831498
93	0xbf1f7f2d	-0.6230343
94	0x3ea664e9	0.32498863
95	0xbea5dbab	-0.32394156
96	0xbd82c5e4	-0.06385401
97	0x3e979d94	0.2961241
98	0xbe1549d3	-0.14578943
99	0xbd24075b	-0.040046077
100	0x3f19c5cf	0.60067457
101	0x3c227d65	0.009917592
102	0xbe69c399	-0.22828521
103	0xbf366185	-0.71242553
104	0xbe8f6ec8	-0.28014207
105	0x3bc02ef8	0.005864974
106	0xbd4e3585	-0.05034401
107	0xbe1e4403	-0.15455632
108	0x3f86b4ea	1.052396
109	0x3f562888	0.83655596
110	0x3edf66d9	0.43633154
111	0x3f1863c0	0.59527206
112	0x3f8b79d0	1.0896549
113	0x3f6194a2	0.8811742
114	0xbf2b4291	-0.6689845
115	0x3e2dbf2b	0.16967456
116	0xbf528ecf	-0.8224916
117	0xbe9c95cc	-0.30583036
118	0xbea34a0c	-0.3189243
119	0xbf7e579a	-0.9935242
120	0x3f2675e9	0.65023667
121	0x3ef0880c	0.46978796
122	0x3ea3f1eb	0.32020506
123	0x3ec8f626	0.39250296
124	0x3f00e203	0.50344867
125	0x3f28aee2	0.6589185
126	0x3ec5c3fb	0.38626084
127	0xbed42483	-0.41434106
128	0x3f81155d	1.0084645
129	0xbe06c151	-0.13159682
130	0xbebbd259	-0.3668392
131	0x3f3c788d	0.73621446
132	0xbf0c9168	-0.5490937
133	0xbdaebe22	-0.08532359
134	0xbf668c9d	-0.9005831
135	0xbe971837	-0.29510662
136	0xbf124a00	-0.57144165
137	0xbf559ac8	-0.834393
138	0x3ed61810	0.41815233
139	0xbdc7c2c3	-0.09753945
140	0xbe9b4931	-0.30329278
141	0x3f05d5e5	0.522795
142	0x3e8e55f1	0.27799943
143	0xbf0db881	-0.55359656

embedder.emb_rnn.weight_hh_l2 f4 [24, 6]
0	0xbf80be5f	-1.0058097
1	0x3ddf9a83	0.10918143
2	0xbf2ec990	-0.6827631
3	0xbc990f4a	-0.018684048
4	0x3d19fee7	0.03759661
5	0x3fbfe9ef	1.4993266
6	0x3e9d9139	0.3077486
7	0x3d9b4770	0.07581985
8	0xbea6afda	-0.3255604
9	0xbceef52b	-0.02916964
10	0xbd7d0ace	-0.061777882
11	0xbec5573c	-0.38543117
12	0x3e962dac	0.2933172
13	0x3f369992	0.7132808
14	0x3d4f0898	0.050545305
15	0x3f00a658	0.5025382
16	0x3e4faa9d	0.20279928
17	0xbe6954ce	-0.22786257
18	0xbe5fa2f1	-0.21839501
19	0xbe2941fa	-0.16529074
20	0xbe19a4dd	-0.15004297
21	0xbf0b0645	-0.5430644
22	0xbf0d15d0	-0.5511141
23	0xbee6f867	-0.4511139
24	0xbe8ec303	-0.27883157
25	0xbbce9fcc	-0.0063056704
26	0xbc70ea99	-0.01470437
27	0xbeffd26a	-0.4996522
28	0xbeb3b8aa	-0.35101825
29	0xbec1f6d4	-0.37883627
30	0xbdb096a7	-0.08622485
31	0xbd8887ae	-0.06666504
32	0x3e360936	0.17776951
33	0xbe2d98f6	-0.16952881
34	0xbe12b0bb	-0.1432523
35	0x3dc1fc93	0.09472003
36	0xbe87b14c	-0.26502454
37	0xbed70a08	-0.4199984
38	0x3e4b9f77	0.1988505
39	0xbf82e7c7	-1.0226983
40	0xbeb3d1c8	-0.35120988
41	0xbe3a4c34	-0.18193132
42	0xbd80e88c	-0.06294355
43	0xbe8ed7e8	-0.27899098
44	0xbea9839e	-0.33108228
45	0xbe2f1658	-0.17098367
46	0xbe199179	-0.149969
47	0xbe990628	-0.2988751
48	0xbeb7654e	-0.35819477
49	0xbf0ac4af	-0.54206365
50	0x3d9c199b	0.07622071
51	0xbf1efa98	-0.62101126
52	0xbe8fa666	-0.2805664
53	0xbe3ca8ee	-0.18423817
54	0x3d5be334	0.053683475
55	0xbe104585	-0.1408902
56	0xbeacfabf	-0.33785054
57	0x3dae745a	0.08518286
58	0x3dfb7947	0.12278991
59	0xbeef8af8	-0.46785712
60	0x3d81f27b	0.063450776
61	0xbdeb06cc	-0.11475906
62	0xbd52e0d4	-0.051483944
63	0xbd62e1cb	-0.055391114
64	0xbed38843	-0.41314897
65	0xbebb5cda	-0.36594278
66	0x3ee8935f	0.45424935
67	0x3e34d617	0.17659794
68	0xbe3535f0	-0.17696357
69	0xbf1e58c0	-0.6185417
70	0xbe597ea5	-0.21239717
71	0xbed7d39c	-0.42153633
72	0xbe558b72	-0.20853975
73	0xbe868e68	-0.26280522
74	0xbd9ea6ac	-0.07746634
75	0x3dfc0bba	0.12306924
76	0xbebe21a4	-0.3713504
77	0xbf08f8e2	-0.53504765
78	0xbeaeb7a1	-0.34124473
79	0x3e0a1ab4	0.13486749
80	0xbf825787	-1.0182961
81	0x3e262579	0.16225232
82	0x3cbd5488	0.023111597
83	0xbcf66336	-0.030076604
84	0x3e6f4867	0.23367463
85	0xbd81e626	-0.063427255
86	0xbee3c4d3	-0.44486102
87	0xbe969e21	-0.29417518
88	0xbece7317	-0.40322182
89	0xbee7416e	-0.45167106
90	0x3d48ae15	0.048994143
91	0xbe50ad4f	-0.20378612
92	0xbe5743a8	-0.21021903
93	0xbc30b215	-0.010784646
94	0x3ec8e29e	0.39235395
95	0xbe93c12e	-0.28858322
96	0xbeaeeb85	-0.34164062
97	0x3df1544b	0.11783656
98	0xbf15a54f	-0.58455366
99	0x3e47e333	0.19520263
100	0xbe8d42ac	-0.2758993
101	0xbe998f62	-0.29992205
102	0x3e706a5e	0.23478076
103	0x3d86ae49	0.06576211
104	0xbda4ebf1	-0.08052815
105	0xbc4258d6	-0.011862
106	0xbebeb797	-0.37249443
107	0xbd40501f	-0.04695141
108	0x3dac16ec	0.084028095
109	0x3f0b9438	0.5452304
110	0xbefe6627	-0.4968731
111	0x3f3a05d6	0.72665155
112	0x3ed0a649	0.40751866
113	0x3f67b126	0.9050468
114	0x3cd3838d	0.025819564
115	0xbef0c45a	-0.47024804
116	0x3df50602	0.119640365
117	0xbe8412b5	-0.25795522
118	0xbed1699d	-0.4090089
119	0xbee41bdd	-0.44552508
120	0x3e365ca4	0.17808777
121	0x3e90fb8f	0.28316924
122	0x3db01622	0.085979715
123	0x3efe06d4	0.49614584
124	0x3ebeb323	0.37246045
125	0x3e7e433e	0.24830338
126	0x3eaae9fe	0.33381647
127	0xbd894c45	-0.067040004
128	0xbe967c34	-0.29391634
129	0xbed38376	-0.41311234
130	0x3e3967cc	0.18106002
131	0x3dec6081	0.11541844
132	0xbef5f992	-0.4804197
133	0xbc4ead1b	-0.012614514
134	0x3ea926d3	0.33037433
135	0xbe8aef81	-0.27135852
136	0xbe829274	-0.2550236
137	0xbe149441	-0.1450968
138	0x3efa7041	0.48913768
139	0xbe09a5b3	-0.13442115
140	0x3f06f82e	0.5272244
141	0x3e4f88ab	0.20266978
142	0xbd580854	-0.052742317
143	0x3f08a677	0.53379005

embedder.emb_rnn.bias_ih_l2 f4 [24]
0	0x3f940f25	1.1567122
1	0x3f60afda	0.8776833
2	0x3fbdda37	1.4832219
3	0x3f03f829	0.5155054
4	0x3f23be61	0.6396237
5	0x3f3db770	0.7410803
6	0x3ea3a1a0	0.31959248
7	0x3f773d72	0.96578133
8	0x3eacc06e	0.33740562
9	0x3f902866	1.1262329
10	0x3f61acc5	0.8815425
11	0x3f336407	0.70074505
12	0x3f4fceca	0.8117491
13	0x3f62c70f	0.8858499
14	0x3f2c0c45	0.6720622
15	0x3f86741b	1.0504183
16	0x3faa21a7	1.329152
17	0x3f1feb2d	0.62468225
18	0x3feb9dbf	1.8407515
19	0x3f46dd6c	0.7768161
20	0x3fd59083	1.6684726
21	0x3f6653c6	0.8997158
22	0x3f30deed	0.6909016
23	0x3f90b7b8	1.1306067

embedder.emb_rnn.bias_hh_l2 f4 [24]
0	0x3f940f25	1.1567122
1	0x3f60afda	0.8776833
2	0x3fbdda37	1.4832219
3	0x3f03f829	0.5155054
4	0x3f23be61	0.6396237
5	0x3f3db770	0.7410803
6	0x3ea3a1a0	0.31959248
7	0x3f773d72	0.96578133
8	0x3eacc06e	0.33740562
9	0x3f902866	1.1262329
10	0x3f61acc5	0.8815425
11	0x3f336407	0.70074505
12	0x3f4fceca	0.8117491
13	0x3f62c70f	0.8858499
14	0x3f2c0c45	0.6720622
15	0x3f86741b	1.0504183
16	0x3faa21a7	1.329152
17	0x3f1feb2d	0.62468225
18	0x3feb9dbf	1.8407515
19	0x3f46dd6c	0.7768161
20	0x3fd59083	1.6684726
21	0x3f6653c6	0.8997158
22	0x3f30deed	0.6909016
23	0x3f90b7b8	1.1306067

embedder.emb_linear.weight f4 [6, 6]
0	0xbfc6673f	-1.5500258
1	0x3f06559e	0.5247439
2	0xbf884ddc	-1.0648761
3	0x3ec4bd30	0.3842559
4	0x3e495f49	0.19665255
5	0x3ebb0496	0.36526936
6	0x3fcaabae	1.5833642
7	0xbda568e9	-0.08076651
8	0x3faf0504	1.3673406
9	0x3ec8209e	0.39087385
10	0x3e85399e	0.2602052
11	0x3f405150	0.75124073
12	0xbfba31b7	-1.4546422
13	0x3e888bf0	0.26669264
14	0xbf61ebc0	-0.8825035
15	0x3eda1353	0.42592868
16	0xbf13dc6d	-0.5775822
17	0xbf219075	-0.6311105
18	0x3f904224	1.1270185
19	0x3ef8ff89	0.48632458
20	0x3fc1b52e	1.5133417
21	0xbe3ccc7d	-0.18437381
22	0x3ec1a304	0.37819684
23	0x3edaf9db	0.4276875
24	0xbff7a0db	-1.9345964
25	0xbf26d5b7	-0.6516985
26	0xbfce3fc2	-1.6113207
27	0x3e940d3e	0.28916353
28	0xbebcba4a	-0.36860877
29	0xbe1c09b0	-0.1523807
30	0xbfcc36a2	-1.5954173
31	0xbd89b5fb	-0.06724163
32	0xbf7031bd	-0.93825895
33	0x3f1f9fc8	0.6235318
34	0x3ebb3149	0.3656104
35	0xbf3fd945	-0.749409

embedder.emb_linear.bias f4 [6]
0	0x3da1c943	0.07899716
1	0xbc8d13e7	-0.017221404
2	0x3e97b9b0	0.29633856
3	0xbdde8b06	-0.1086636
4	0x3e4d4f28	0.20049727
5	0xbe048122	-0.12939885

recovery.rec_rnn.weight_ih_l0 f4 [24, 6]
0	0x3df71d68	0.12066156
1	0xbe00dd02	-0.12584308
2	0x3e4f5395	0.20246728
3	0x3e81194d	0.25214615
4	0x3f4fb4ef	0.8113546
5	0xbd1e33e3	-0.0386237
6	0x3e1eead3	0.15519266
7	0x3f30ca58	0.6905875
8	0x3f201f1f	0.6254749
9	0x3ed47280	0.41493607
10	0x3eb6a9ff	0.35676572
11	0x3de8c6c3	0.11366036
12	0x3f25a6e4	0.6470778
13	0x40129a67	2.290674
14	0x3f2b86d1	0.6700259
15	0x4008f00a	2.1396508
16	0x3fb03976	1.3767536
17	0x3f0c61ff	0.5483703
18	0x3f90e1b7	1.1318883
19	0x3f8d683e	1.1047437
20	0x3fc6e1ea	1.5537694
21	0x3f4d2327	0.80131763
22	0x3fc6d41f	1.5533484
23	0x3f64cb86	0.8937305
24	0x3f373456	0.71564233
25	0x3e5a9698	0.2134651
26	0x3f8feb38	1.1243658
27	0x3e6234bb	0.22090428
28	0x3f6b638b	0.91948766
29	0x3ef7a653	0.48369083
30	0x3f83f194	1.0308099
31	0x400ce3c9	2.201403
32	0x3fc18ef3	1.512175
33	0x3fdee19e	1.7412603
34	0x3f4ca35d	0.7993677
35	0x3f6327d3	0.8873264
36	0xbdddbdb7	-0.10827201
37	0xbeb014b3	-0.34390792
38	0x3eba6fab	0.3641332
39	0xbe78fce9	-0.24315228
40	0x3d102736	0.035193644
41	0x3d8a6a39	0.067585416
42	0x3e1c196d	0.15244074
43	0xbca8d5a1	-0.020609679
44	0xbe066a9c	-0.13126606
45	0x3cb8d10d	0.02256062
46	0x3e9230b5	0.28552786
47	0x3e41450b	0.18873994
48	0x3f1460c0	0.5796013
49	0x3f343d1c	0.70405746
50	0x3f8c1ee5	1.0946928
51	0x3f6c2185	0.92238647
52	0x3f819a18	1.0125151
53	0x3f82dd2d	1.0223747
54	0x3ce8b015	0.028404275
55	0xbe7a503f	-0.24444674
56	0xbeb23318	-0.34804606
57	0xbdcb7c4d	-0.09935818
58	0xbf2236cc	-0.63364863
59	0xbeb1b429	-0.34707764
60	0x3d19130c	0.03737168
61	0xbf4dffe8	-0.80468607
62	0xbe8263bd	-0.2546672
63	0xbf48d8ab	-0.7845561
64	0xbee3050d	-0.4433979
65	0xbae58c14	-0.001751306
66	0x3e7870f4	0.24261838
67	0xbec651bd	-0.38734236
68	0x3def86f6	0.11695664
69	0xbcad9915	-0.02119116
70	0x3ea28d8d	0.3174862
71	0x3d861b0c	0.065481275
72	0x3e626b81	0.22111322
73	0x3f30dd76	0.6908792
74	0xbf391cae	-0.72309387
75	0x3e1a0e91	0.15044619
76	0xbe62fa6b	-0.2216584
77	0xbefc55c6	-0.4928419
78	0x3e9d8222	0.30763346
79	0x3f0a9835	0.541385
80	0x3e9d297a	0.30695707
81	0x3f6d970d	0.9280861
82	0x3e45865b	0.19289534
83	0x3eed02c0	0.4629116
84	0x3f16ac1d	0.58856374
85	0x3fbb5f95	1.4638544
86	0x3f81e4ac	1.014791
87	0x3f6ab28f	0.9167871
88	0x3f065a99	0.5248199
89	0x3f7d6293	0.9897854
90	0xbe64dd1a	-0.22349969
91	0x3f11ade5	0.56905967
92	0xbe1b3d5f	-0.1516013
93	0x3eee6cab	0.46567282
94	0xbfa60780	-1.2971039
95	0xbe922417	-0.2854316
96	0xbec234ec	-0.37931
97	0x3e695ceb	0.22789352
98	0xbf1b3197	-0.60622543
99	0x3f28450e	0.6573037
100	0xbfa54266	-1.2910888
101	0xbef87893	-0.4852949
102	0x3f12d891	0.57361704
103	0x3fb765ed	1.432798
104	0x3fa1454f	1.2599276
105	0x3f7af3ce	0.98028266
106	0x3ef9b787	0.48772833
107	0x3f421f08	0.758286
108	0x3df1951f	0.11796021
109	0x3f2cd1a1	0.6750737
110	0xbeedcdce	-0.4644608
111	0x3e344ed2	0.17608193
112	0xbf2c621f	-0.6733722
113	0xbdfb986c	-0.122849315
114	0x3e985fa8	0.2976048
115	0xbbc9190b	-0.0061370186
116	0xbc72fe25	-0.014831101
117	0x3e3e0a1e	0.18558547
118	0x3eb23dfe	0.3481292
119	0xbde577bb	-0.112044774
120	0x3f239c33	0.63910216
121	0x3e60d42e	0.2195594
122	0xbdf66f9a	-0.12033005
123	0x3e214df8	0.15752399
124	0x3dc9293d	0.09822319
125	0xbe5bcc01	-0.2146454
126	0x3f6a60f7	0.91554207
127	0x3f01e62d	0.50741845
128	0x3fcb92ea	1.590421
129	0x3f21f849	0.6326948
130	0x3f600d49	0.8752027
131	0x3f607d4f	0.87691206
132	0x3f226cea	0.6344744
133	0xbe8104e3	-0.2519904
134	0x3f6822db	0.90678185
135	0x3f057220	0.52127266
136	0x3f924bb7	1.1429356
137	0x3f25cb6f	0.6476354
138	0xbcb4748b	-0.022028228
139	0x3e55a574	0.20863897
140	0xbe1f998c	-0.15585917
141	0x3f01bb5d	0.5067652
142	0x3f10666b	0.5640628
143	0x3e8a356e	0.2699389

recovery.rec_rnn.weight_hh_l0 f4 [24, 6]
0	0xbe67b96f	-0.22629331
1	0xbeaa3e09	-0.33250454
2	0xbe339131	-0.17535855
3	0xbe5d75be	-0.21626946
4	0xbf9cfb76	-1.226424
5	0xbece535d	-0.40297976
6	0xbd834d1b	-0.06411191
7	0x3e27e1fd	0.16394801
8	0xbedc2765	-0.42998806
9	0xbf6b2c37	-0.9186434
10	0xbe418211	-0.18897273
11	0xbe14e825	-0.14541681
12	0x3f3e9d9c	0.7445924
13	0x3f4b1dc7	0.7934231
14	0x3e842c3e	0.25815004
15	0xbe0f8d00	-0.14018631
16	0x3ed12eb8	0.40855956
17	0x3f00fabd	0.50382596
18	0x3f1e22ec	0.61772037
19	0x3f82b645	1.0211874
20	0x3f4bbdd0	0.79586506
21	0xbd104114	-0.035218313
22	0xbe890bad	-0.2676672
23	0x3f28d854	0.6595509
24	0x3f1f6239	0.6225925
25	0x3fa54cb5	1.2914034
26	0x3f477bc5	0.7792323
27	0x3d899112	0.06717123
28	0xbe056d32	-0.13029936
29	0x3f4682de	0.7754344
30	0x3ec6ded3	0.38841876
31	0xbe0eb127	-0.13934766
32	0x3e8c1641	0.27360728
33	0x3e47634e	0.19471475
34	0x3e35df87	0.1776105
35	0xbe92dc20	-0.28683567
36	0x3de2cf52	0.110746995
37	0x3eb9c8ce	0.36286014
38	0xbe13eac1	-0.1444502
39	0xbdbff88d	-0.09373579
40	0xbe8de3e3	-0.27712926
41	0x3f006c10	0.5016489
42	0x3d0037eb	0.031303328
43	0x3df668be	0.12031697
44	0xbdaa9804	-0.08329776
45	0x3e8a8210	0.27052355
46	0x3e971718	0.29509807
47	0xbea0ca6c	-0.31404436
48	0x3f9a205e	1.2041128
49	0x3fb2848f	1.3946704
50	0x3f9b6d4d	1.2142731
51	0x3f6e52e5	0.93095237
52	0x3e74eaab	0.23917644
53	0x3f84af18	1.0365934
54	0xbe9246cf	-0.28569648
55	0xbf2f08f8	-0.6837306
56	0xbf0c2107	-0.54737896
57	0x3e75761b	0.23970835
58	0x3ea74d6c	0.32676256
59	0xbf434fcd	-0.7629364
60	0xbf3be602	-0.7339784
61	0xbef7fd8e	-0.48435634
62	0xbf03c8cf	-0.51478285
63	0x3e2e8731	0.17043759
64	0x3ea8f1c5	0.32996956
65	0xbe4e157c	-0.20125383
66	0x3e7542b9	0.23951234
67	0x3e88c1c1	0.26710322
68	0xbedf7002	-0.43640143
69	0xbebd2cc2	-0.3694821
70	0xbf050f3c	-0.5197637
71	0xbd37bf36	-0.044860087
72	0x3f12abc5	0.5729335
73	0x3fa256c9	1.2682735
74	0x3fb2527b	1.3931421
75	0xbe9a4f0d	-0.30138436
76	0xbf9e4ca4	-1.2367139
77	0x3fb20381	1.3907319
78	0x3ec14434	0.37747347
79	0x3e191a44	0.14951426
80	0xbe9b891e	-0.3037805
81	0xbe51ad97	-0.20476376
82	0x3e2c8852	0.16848877
83	0x3e7aa671	0.24477555
84	0x3f08ab6e	0.5338658
85	0x3ebf98c8	0.3742125
86	0x3e9a0e21	0.30088905
87	0x3d988a92	0.07448305
88	0x3ebf3085	0.37341705
89	0xbd16d7ef	-0.036827024
90	0x3e44e35f	0.1922736
91	0xbe527345	-0.20551784
92	0x3c4bc39d	0.012436775
93	0xbd429274	-0.04750295
94	0xbdbb82f4	-0.09155837
95	0xbd9fe6fa	-0.07807727
96	0xbd16ddc2	-0.03683258
97	0xbe8f50ca	-0.27991325
98	0x3e34887d	0.17630191
99	0xbe5b5192	-0.21417835
100	0x3b0c2c80	0.0021388829
101	0xbeecf60d	-0.46281472
102	0xbe7aaba4	-0.24479538
103	0x3ec50689	0.38481548
104	0x3c86ad22	0.016439978
105	0x3ebb7bfa	0.36618024
106	0x3eba0a22	0.36335856
107	0xbd679869	-0.056541834
108	0xbe3512b0	-0.1768291
109	0xbe9eed8a	-0.31040603
110	0x3e8fd852	0.28094727
111	0x3d50c0c7	0.050965097
112	0xbdb5440f	-0.08850872
113	0xbea39625	-0.3195049
114	0xbe10e354	-0.14149219
115	0x3de87318	0.113500774
116	0x3eafe409	0.34353665
117	0x3e188dc2	0.14897826
118	0xbe706353	-0.23475389
119	0xbe2ddae8	-0.16978037
120	0x3f1c7228	0.6111169
121	0x3ecceb0e	0.40023082
122	0xbe07a79e	-0.13247535
123	0xbdc91a66	-0.09819488
124	0xbefdf58d	-0.49601403
125	0x3e95703f	0.291872
126	0x3f20c81a	0.6280533
127	0x3f7088aa	0.9395853
128	0x3f5aec30	0.85516644
129	0xbeab2130	-0.33423758
130	0xbf21d05d	-0.6320856
131	0x3f02d5fc	0.51107764
132	0x3f250e08	0.64474535
133	0x3f801071	1.0005018
134	0x3f35e8a0	0.7105808
135	0xbd864983	-0.0655699
136	0xbe9273b9	-0.28603914
137	0x3fa7020b	1.3047498
138	0xbe1e92b1	-0.15485646
139	0x3eea7dd4	0.45799124
140	0xbe9a41fd	-0.3012847
141	0xbe880299	-0.26564482
142	0x3e48ca78	0.19608486
143	0xbe65752f	-0.22407983

recovery.rec_rnn.bias_ih_l0 f4 [24]
0	0x3f8c569d	1.0963932
1	0x3fac0baf	1.3441066
2	0x401c6470	2.4436302
3	0x3feec960	1.8655205
4	0x3fb51051	1.4145604
5	0x4027fef1	2.6249354
6	0x3f8a8b41	1.0823747
7	0x3f8e9a06	1.1140754
8	0x4003723b	2.053847
9	0x3f1bf970	0.60927486
10	0x3f0af0f7	0.54273933
11	0x3f609a93	0.8773586
12	0x3f8ba365	1.0909239
13	0x3fb7021a	1.4297516
14	0x3ffc410d	1.9707352
15	0x3f7f6c19	0.9977432
16	0x3f720ed1	0.9455386
17	0x40003f72	2.0038724
18	0x3f90f0dc	1.1323504
19	0x3f94f0b1	1.1635953
20	0x3fa7835b	1.3086962
21	0x3fddd3a3	1.7330211
22	0x3fa29a2b	1.2703298
23	0x3f87def1	1.0614911

recovery.rec_rnn.bias_hh_l0 f4 [24]
0	0x3dc56ab6	0.09639494
1	0x3eb02d66	0.34409636
2	0x3fb8c998	1.4436522
3	0x3f5d9320	0.8655262
4	0x3ed44093	0.41455516
5	0x3fcffde5	1.6249357
6	0x3da8aecc	0.08236465
7	0x3de9a04a	0.11407526
8	0x3f86e45e	1.0538442
9	0xbec80d1a	-0.39072496
10	0xbeea1dfd	-0.45726004
11	0xbdfb2ccf	-0.12264406
12	0x3dba3853	0.09092774
13	0x3edc0856	0.4297511
14	0x3f7881a1	0.970728
15	0xbb13e373	-0.002256599
16	0xbd5f1289	-0.054461036
17	0x3f807f36	1.0038822
18	0x3e07883e	0.13235566
19	0x3e2784d4	0.16359264
20	0x3e9e0c77	0.30868885
21	0x3f3ba700	0.73301697
22	0x3e8a687c	0.2703284
23	0x3d7bd747	0.0614846

recovery.rec_rnn.weight_ih_l1 f4 [24, 6]
0	0x3e826e9b	0.2547501
1	0x3df82441	0.1211629
2	0x3f2a52a2	0.6653234
3	0xbfd2f16d	-1.6479927
4	0xc02af95c	-2.6714697
5	0x3e9944c4	0.29935277
6	0x3f86b8a0	1.0525093
7	0x3f003460	0.5007992
8	0xbdfbdc40	-0.12297869
9	0x401ce91a	2.4517274
10	0x3f40f153	0.7536823
11	0x3f0c3f9d	0.54784566
12	0x3fda4639	1.705268
13	0x3fc08e23	1.5043377
14	0x3f990f19	1.1957732
15	0x400a9e78	2.1659222
16	0x3fa4f800	1.2888184
17	0x3fe162db	1.7608293
18	0x3f2b6bcb	0.66961354
19	0x3f96eb7c	1.1790614
20	0x3fc248c3	1.5178455
21	0xbd50bbb3	-0.050960254
22	0xbf8f23ad	-1.1182762
23	0x3fc322cc	1.5244994
24	0x3e3f52ed	0.18683977
25	0x3f2d04d3	0.67585486
26	0x3e84b583	0.25919732
27	0xbfc6b38d	-1.5523545
28	0xbfe97fda	-1.8242142
29	0x3eb5636c	0.35427415
30	0x3f920e1c	1.1410556
31	0x3f351e07	0.70748943
32	0x3fbc7c45	1.4725424
33	0x3f00d7b7	0.50329155
34	0x3dde4812	0.1085359
35	0x3fbc4490	1.4708424
36	0xbef2c3ae	-0.47414917
37	0xbf0ad4b4	-0.5423081
38	0xbe618314	-0.22022659
39	0xbf6141ed	-0.8799122
40	0xbf94b47f	-1.1617583
41	0xbf4fbf80	-0.8115158
42	0x3e6fab7f	0.23405264
43	0x3e224a93	0.1584876
44	0xbe32570a	-0.17416015
45	0x40413b00	3.019226
46	0x3f02f581	0.5115586
47	0xbe8f3227	-0.2796795
48	0x3edb0e9d	0.42784587
49	0xbe3751d2	-0.17902306
50	0x3e4855d4	0.19563991
51	0xbf2b224a	-0.66849196
52	0x3f8242a1	1.0176584
53	0xbd4fcc94	-0.05073221
54	0xbf6e62e2	-0.93119633
55	0xbf84cc5b	-1.0374864
56	0xbf821f99	-1.0165893
57	0xbfb9a59b	-1.4503664
58	0xbeaae16d	-0.3337511
59	0xbec4d7e5	-0.38445964
60	0xbf13300f	-0.57495207
61	0xbb48ed4c	-0.0030659018
62	0xbe19b552	-0.15010574
63	0xbfba8949	-1.4573146
64	0xbf41b304	-0.7566378
65	0x3d349e46	0.044096254
66	0x3f3f7496	0.7478727
67	0x3f8068f1	1.0032026
68	0x3f1fce2b	0.6242396
69	0x3efe5f36	0.49682015
70	0xbdbd1a87	-0.09233575
71	0x3f4c8c38	0.79901457
72	0xbed1cd80	-0.40977097
73	0xbeaaaa6f	-0.33333156
74	0xbeb5be17	-0.3549659
75	0xbfe4acf5	-1.7865282
76	0xbfc084db	-1.5040544
77	0x3d8e28c4	0.06941369
78	0x3dcedd48	0.101008
79	0xbd84e83d	-0.064896084
80	0x3e4de561	0.20107032
81	0x3f3c99dc	0.7367227
82	0x3ea4744a	0.32119972
83	0xbe315dc3	-0.17320924
84	0x3dc6f84f	0.0971533
85	0xbe809993	-0.25117168
86	0x3df15924	0.1178458
87	0x40893cbf	4.2886653
88	0x3fc17903	1.5115055
89	0x3ef29cee	0.47385353
90	0x3e1d2f10	0.15349984
91	0xbd8fb772	-0.07017411
92	0x3e1b2dc9	0.15154184
93	0x40131b04	2.298524
94	0x3fb9d07b	1.4516748
95	0x3da93022	0.08261134
96	0xbdaf90c7	-0.08572536
97	0x3e8954b9	0.2682245
98	0x3ed4d1a0	0.4156618
99	0xbf44199b	-0.7660157
100	0x3e39217e	0.18079183
101	0x3ef960c1	0.4870663
102	0xbf6390d9	-0.88892895
103	0xbeb352ae	-0.35024017
104	0xbf24e6b4	-0.64414525
105	0xbfb55e2b	-1.4169363
106	0x3ef63c1f	0.48092744
107	0xbe915b45	-0.28389946
108	0x3faa6f3d	1.3315197
109	0x3fc7efab	1.5620016
110	0x3fb0251e	1.3761327
111	0x3f8a1c55	1.0789896
112	0xbf3b27b2	-0.73107445
113	0x3f6edfa4	0.9331
114	0xbda5ac1d	-0.08089469
115	0xbf40bf04	-0.75291467
116	0xbe832f39	-0.25621966
117	0x40d548b1	6.6651235
118	0x3fdb3d27	1.7128037
119	0x3e24c464	0.16090542
120	0x3e3697a8	0.1783129
121	0x3ec2f18c	0.3807491
122	0x3f337b22	0.7010976
123	0xbec0a3f0	-0.37625074
124	0x3e5c466c	0.21511239
125	0x3f3bbb6c	0.7333286
126	0xbec88204	-0.39161694
127	0x3ed0299b	0.40656742
128	0x3ef7cef4	0.4840008
129	0xbfffa093	-1.9970878
130	0xc067991e	-3.6187205
131	0x3e9a4a6f	0.30134913
132	0xbd9bb719	-0.076032825
133	0x3e0222f4	0.12708646
134	0x3ede0110	0.43360186
135	0xbfdd63a5	-1.7296034
136	0xbf1b522a	-0.6067225
137	0x3e883ee0	0.2661047
138	0x3e492379	0.19642438
139	0x3f125d37	0.57173485
140	0x3e9e6eea	0.30943996
141	0x3fd35a46	1.6511924
142	0xbe8082a0	-0.2509966
143	0x3f20c93d	0.62807065

recovery.rec_rnn.weight_hh_l1 f4 [24, 6]
0	0x3f0d8f34	0.55296636
1	0x3f46e217	0.77688736
2	0x3f9ce651	1.2257787
3	0xbf96c061	-1.1777459
4	0x3fdf5dd3	1.7450508
5	0xbfc7e94f	-1.5618075
6	0x3f4d5293	0.80204123
7	0xbef5da07	-0.48017904
8	0x3f4488d7	0.767713
9	0x3dd2b5e8	0.10288602
10	0x3ed08256	0.40724438
11	0xbf271a9f	-0.65274996
12	0x3f2b4fee	0.6691884
13	0xbe005ddb	-0.12535803
14	0xbd59a6d9	-0.053137634
15	0xbe61dc1f	-0.22056626
16	0xbe8b5ad3	-0.2721773
17	0x3f47a8c7	0.7799191
18	0x3e92e3ec	0.28689516
19	0x3e730835	0.237336
20	0x3f216796	0.63048685
21	0xbde8e381	-0.11371518
22	0x3f683564	0.9070647
23	0xbf1d4cbf	-0.6144523
24	0xbd90cac6	-0.07069926
25	0x3ea71a3a	0.32637197
26	0xbd9f6e0f	-0.07784664
27	0x3f379927	0.71718067
28	0xbeb01034	-0.34387362
29	0x3da9753d	0.082743146
30	0x3f14a737	0.5806765
31	0x3c1ccd8f	0.009570493
32	0xbd79d2d3	-0.060992073
33	0xbeacce5c	-0.3375119
34	0x3eccbc2a	0.39987308
35	0xbf5b8c9f	-0.85761446
36	0xbddc68c1	-0.10762168
37	0xbfb4f29a	-1.4136536
38	0xbf5221d7	-0.82082886
39	0xbddee1ff	-0.10882949
40	0xbf248939	-0.64271885
41	0x3c885be6	0.016645383
42	0xbeb4a003	-0.3527833
43	0xbe2fcce5	-0.17168005
44	0xbe5b749b	-0.214312
45	0x3fd19326	1.6373031
46	0xbf214cd3	-0.6300785
47	0x3f3d8b65	0.74040824
48	0xbf39dfac	-0.7260692
49	0x3f128f62	0.57250035
50	0x3f9a5935	1.2058474
51	0x3ea23385	0.3167993
52	0x3ec9cca6	0.39413947
53	0xbf3f193a	-0.7464787
54	0x3de3bbcd	0.111198045
55	0xbfe819d7	-1.8132886
56	0xbf62a7af	-0.88537115
57	0xbf3ad730	-0.729846
58	0xbef9a3b2	-0.48757702
59	0x3f4efc0d	0.8085335
60	0xbe6065c4	-0.2191382
61	0xbd9b399c	-0.075793475
62	0xbe99dc34	-0.30050814
63	0x3e9eb7f8	0.30999732
64	0xbf5105f2	-0.81649697
65	0xbcf3b9b0	-0.029751629
66	0x3de66ed4	0.112516075
67	0x3eab8f5c	0.33507812
68	0x3edc0d2d	0.42978802
69	0xbeab52d1	-0.3346162
70	0x3eaecbdf	0.34139916
71	0xbf612d37	-0.8795962
72	0xbdce6687	-0.10078149
73	0xbc95f51a	-0.01830535
74	0xbe071307	-0.13190852
75	0x3e17b0c0	0.14813519
76	0xbc91aaec	-0.017781697
77	0xbd85fb16	-0.065420315
78	0xbe78d23f	-0.24298953
79	0x3e8e8a22	0.27839762
80	0x3db26c5b	0.087120734
81	0xbecda3f5	-0.40164152
82	0x3def4bb9	0.11684365
83	0xbda1098d	-0.0786315
84	0x40016eaa	2.0223794
85	0xbfc4452a	-1.5333607
86	0xbf76c232	-0.9639007
87	0x3ed04c79	0.40683344
88	0x3fec96e1	1.8483545
89	0xbec54161	-0.38526443
90	0xbde725cd	-0.11286507
91	0xbe01c875	-0.12674125
92	0xbcae0d55	-0.021246592
93	0xbdebefff	-0.11520385
94	0x3e11f632	0.14254072
95	0x3e24251b	0.1602978
96	0x3ce74737	0.0282322
97	0xbec42341	-0.38308147
98	0xbdaa8a07	-0.08327108
99	0xbf22dd18	-0.6361861
100	0xbecdfbd3	-0.4023119
101	0x3dd04a2e	0.10170399
102	0xbfc3d8a2	-1.5300486
103	0xbf438a4b	-0.76382893
104	0xbeb56a7f	-0.35432813
105	0x3ee80a97	0.4532058
106	0xbf8057ae	-1.0026758
107	0x3e75eb39	0.24015512
108	0x3e94790f	0.2899861
109	0x3f865c97	1.0497006
110	0x3f44b596	0.7683958
111	0xbebd46e1	-0.3696814
112	0x3f21e5a4	0.6324103
113	0xbf4c660c	-0.7984321
114	0x3d17974b	0.03700952
115	0xbf25cc55	-0.6476491
116	0xbdef9325	-0.116979875
117	0xbe377433	-0.1791542
118	0x3dfcf020	0.12350488
119	0x3f237777	0.63854164
120	0x3eb27b5c	0.3485974
121	0x3e0b9d1e	0.13634154
122	0xbe6002ad	-0.2187602
123	0xbf04a147	-0.5180859
124	0x3eb793c7	0.35854933
125	0xbee89af7	-0.4543073
126	0xbe7211c0	-0.23639584
127	0x3d923ab7	0.07140105
128	0x3df96e74	0.121792704
129	0xbe805ee7	-0.25072405
130	0x3dac014c	0.08398685
131	0x3d8cf078	0.06881803
132	0x3f2889f8	0.65835524
133	0x3edac549	0.42728642
134	0x3ece572b	0.4030088
135	0xbf0891d1	-0.533475
136	0x3e234646	0.15944776
137	0xbf39f032	-0.72632134
138	0xbf133ea9	-0.57517487
139	0x3f19ff09	0.6015478
140	0xbdbf6811	-0.09346021
141	0x3f7af635	0.9803193
142	0xbf3d11a1	-0.73855025
143	0xbf0de9ee	-0.55435073

recovery.rec_rnn.bias_ih_l1 f4 [24]
0	0x3f791b07	0.97306865
1	0x3f8c169b	1.0944399
2	0x401dbecf	2.464771
3	0x400abfca	2.1679559
4	0x3fa17c76	1.2616107
5	0x3ffcc4fd	1.9747616
6	0x3f031815	0.5120862
7	0x3f552874	0.8326485
8	0x3f87d12c	1.0610709
9	0x3eb613f9	0.35562113
10	0x3f6ca896	0.9244474
11	0x3fd01031	1.6254941
12	0x3f807514	1.003573
13	0x3f983c41	1.1893388
14	0x3f80cdc0	1.006279
15	0x3f8aaf59	1.0834762
16	0x3f91070a	1.1330273
17	0x3f5b7e7b	0.8573987
18	0x401bff11	2.437443
19	0x3f392956	0.723287
20	0x3fabc6b0	1.342001
21	0x3f991223	1.195866
22	0x3fa4aacd	1.2864624
23	0x3f993988	1.1970682

recovery.rec_rnn.bias_hh_l1 f4 [24]
0	0xbcdca64b	-0.026934763
1	0x3dc16967	0.09443932
2	0x3fbb7db4	1.4647737
3	0x3f957f88	1.1679544
4	0x3e85f230	0.26161337
5	0x3f7989da	0.9747597
6	0xbef9cf7f	-0.4879112
7	0xbe2b5d6e	-0.1673486
8	0x3d7a24df	0.06107032
9	0xbf24f61d	-0.6443804
10	0xbd9abd46	-0.07555632
11	0x3f202042	0.6254922
12	0x3b6ab4ba	0.0035813288
13	0x3e41dfd3	0.18933038
14	0x3bcdbb67	0.0062784436
15	0x3daaf7ca	0.08348043
16	0x3e0838e2	0.13302949
17	0xbe12050a	-0.14259735
18	0x3fb7fdc2	1.4374316
19	0xbe8dad31	-0.27671197
20	0x3eaf1b47	0.34200498
21	0x3e48912b	0.19586627
22	0x3e92ab9e	0.2864656
23	0x3e49cd40	0.19707203

recovery.rec_rnn.weight_ih_l2 f4 [24, 6]
0	0x3fd9182d	1.6960503
1	0xbf208367	-0.62700504
2	0x3e2abc93	0.16673498
3	0xbf98c5ed	-1.1935402
4	0xbf19ca0d	-0.6007393
5	0x3f246bb6	0.64226854
6	0xbf4d9feb	-0.8032214
7	0x3ed48b05	0.41512313
8	0xbea06282	-0.31325155
9	0x3fa3784c	1.2771087
10	0x3d8f9a7e	0.07011889
11	0xbee35b59	-0.4440563
12	0x407b3966	3.9253783
13	0xbebd129c	-0.3692826
14	0x3e5fe384	0.21864134
15	0x3f8bc3a5	1.0919081
16	0x3f9c66b5	1.2218844
17	0xbeb126d2	-0.3459993
18	0x3f80b456	1.0055034
19	0x3f576d01	0.841507
20	0x3ef42feb	0.47692809
21	0x3f18f59a	0.5974976
22	0x3ec93bd4	0.39303458
23	0xbf935e66	-1.1513183
24	0xc00480bf	-2.070358
25	0x402ce0d0	2.7012215
26	0x3f8cc2c3	1.0996937
27	0x3fbb738b	1.4644636
28	0x3d94a2f1	0.07257641
29	0xbf7807fb	-0.9688718
30	0x3e77c1e0	0.24195051
31	0xbe186b41	-0.14884664
32	0xbf7d13a8	-0.9885812
33	0xbff98a16	-1.9495265
34	0x3f9c36e2	1.2204249
35	0xbec76525	-0.38944355
36	0xbf671313	-0.9026348
37	0xbf480af6	-0.78141725
38	0xbf6299f4	-0.88516164
39	0x3fc83f80	1.5644379
40	0xbf793811	-0.97351176
41	0x3fb40597	1.4064206
42	0xbf11c725	-0.56944495
43	0x3e31339a	0.1730484
44	0xbf365d25	-0.7123588
45	0xbda68542	-0.08130886
46	0xbf65ae64	-0.89719224
47	0x3e8d412a	0.2758878
48	0x3ed08bc0	0.4073162
49	0xbfb40582	-1.4064181
50	0xbf4dc4b3	-0.80378264
51	0x3f5f79f4	0.8729546
52	0xbfa755ef	-1.30731
53	0x3f18aaa6	0.5963539
54	0x3ee1142b	0.439607
55	0xbf17ed4a	-0.5934645
56	0xbf0af034	-0.5427277
57	0xbd7ca7d5	-0.061683495
58	0xbfcffeed	-1.6249672
59	0x3f01effb	0.50756806
60	0xbfb7cc41	-1.4359208
61	0x3ea02f06	0.31285876
62	0xbdb4adcb	-0.08822211
63	0xbf054b37	-0.52067894
64	0x3eac7d6b	0.33689436
65	0xbe77f2b6	-0.2421368
66	0xbe85226b	-0.2600282
67	0x3badb273	0.005300814
68	0x3f1ac774	0.6046059
69	0xbfd078c5	-1.6286856
70	0x3eae0aa9	0.33992508
71	0xbea5cfa7	-0.3238499
72	0xbf89e61c	-1.0773349
73	0x3f90ecac	1.1322227
74	0xba81bf76	-0.0009898979
75	0xbf8facbe	-1.1224592
76	0x3e84d2ec	0.2594217
77	0x3e122098	0.14270246
78	0xbf502036	-0.8129915
79	0x3c2664c4	0.01015586
80	0x3e69fa85	0.22849472
81	0xbfbe8a9d	-1.4886051
82	0xbdac76d8	-0.08421105
83	0x3ec34076	0.38135117
84	0xbfae547b	-1.3619531
85	0x3d822f27	0.0635665
86	0xbf0e7e8a	-0.55661833
87	0x3fa0a83d	1.2551342
88	0xbf356f85	-0.7087329
89	0x3f0a863f	0.54111093
90	0xbf8f4baa	-1.1194966
91	0x3ebc0918	0.36725688
92	0xbdb0449f	-0.086068384
93	0x4005470b	2.082461
94	0xbcd28dca	-0.025702376
95	0xbda16769	-0.07881052
96	0x3f9d59e7	1.2293061
97	0xbf56d32c	-0.8391597
98	0xbfa56a00	-1.2922974
99	0xbce8ff77	-0.028442128
100	0xbe91b00b	-0.28454623
101	0x3f3107b7	0.69152397
102	0x3f87ee76	1.0619648
103	0x3e2813fd	0.16413875
104	0xbc16cb92	-0.009203808
105	0xbf0a6481	-0.54059607
106	0x3f2765d3	0.65389746
107	0xbed7b1f5	-0.42127958
108	0x402e1de6	2.7205749
109	0xbf41a211	-0.7563792
110	0xbe39fb6d	-0.18162318
111	0xbe892c16	-0.26791447
112	0x3dac2278	0.08405012
113	0x3f261269	0.6487184
114	0xbf8f4b0c	-1.1194777
115	0xbc539ceb	-0.01291583
116	0x3dcad570	0.09903991
117	0x3f56e696	0.83945596
118	0xbec74236	-0.38917702
119	0x3eb8f3d2	0.3612352
120	0x3f84781a	1.0349152
121	0x3eb377bb	0.35052285
122	0x3e158ac2	0.14603713
123	0x3ef0a9d2	0.47004563
124	0x3f04470e	0.5167092
125	0xbf918386	-1.1368263
126	0xbe6d6f85	-0.23187073
127	0xbd646fa4	-0.05577053
128	0x3eab208f	0.33423278
129	0x3facb80e	1.3493669
130	0xbe5ce6a5	-0.21572359
131	0x3f26f753	0.65221137
132	0xc02b1277	-2.673002
133	0x403a828d	2.9142182
134	0xbed4f4a6	-0.41592902
135	0x409987ef	4.7978435
136	0xbfc80cea	-1.5628941
137	0xbed327d9	-0.4124134
138	0x3fc6af46	1.5522239
139	0x3ee0791d	0.43842402
140	0x3e6aa78e	0.2291548
141	0x3f4eed3f	0.8083076
142	0x3f23495c	0.6378381
143	0xbf72c4f7	-0.94831795
