Output/test_decosnt/model.pt (torch, 150968 bytes, 65 tensors)

embedder.emb_rnn.weight_ih_l0 f4 [60, 6]
00000000: f621 e6bc bf7e 033f 0c31 653e e781 3dbe
00000010: 15b4 94be eec8 e8be 8dd9 3e3e 9906 45bd
00000020: 57f6 3d3f 9c55 1ebe 7af8 37bd 2a85 c33e
00000030: 3de5 03bd bac9 383f 9b4e a9be e00b 5fbe
00000040: f794 d8be 1ca8 aa3d f30b 863d f117 91be
00000050: ad0a a93e 0368 2f3f 5048 713d 96a4 0cbf
00000060: e342 12be 2b42 44bf 7161 ad3e e018 cc3e
00000070: 0398 663e 9d30 2abe c6eb 8a3d 9a9d 46be
00000080: ee60 223f 3b32 08be 1b6b c4be a774 d03e
00000090: 0b68 36bd d72a 67be 423f b8be 214b 013d
000000a0: d798 733e 8828 203e e50e 72be f1eb 013f
000000b0: 9284 80bd a854 83be 4620 c1be b912 cbbe
000000c0: dcd6 38be 2d83 183f 2edc bc3e b6e3 963e
000000d0: dd46 61bd 4807 90bd 5558 003d 4de2 663e
000000e0: 352a 00be b971 7a3e 052c 9bbd e76f 083e
000000f0: 780c 7e3e 0b34 03bf 7f35 183f 23b5 53bf
00000100: ad50 053f 6db8 d03d f2c4 70bd e468 a8be
00000110: 0e17 babe 3f99 96bd 1412 943e 2246 d93e
00000120: 4e85 043c 1273 e0bd 054f 29be 4645 133f
00000130: f790 9cbe 5156 c3be 7284 893e 1615 4d3f
00000140: 9e18 ccbd 54e3 f1be 7bf7 84bf 8ff4 33be
00000150: da2e d33d e88b f2be 8036 903e aed0 e8bd
00000160: 6635 003f 6bc0 383e c9c9 5bbd 2b3b 013f
00000170: 85b4 c33e 2219 b63e 0ffa 3f3f 9291 5abd
00000180: 703f 2a3e e838 433e 79e8 db3f 2020 cd3d
00000190: 1bd4 1ebd 6e37 07bd 2fa4 823d 5221 0b3e
000001a0: 196c 11be ed1d aabd baa5 5dbc 4e80 603e
000001b0: 92a0 0e3d 44cd 93be 6bac c83e d428 f2bb
000001c0: 7184 e73e d66b c43e 9715 283d dfb3 dd3c
000001d0: 21f9 b73d 3b4f dd3d f845 1a3f 228c 57be
000001e0: aba0 77be 6512 9f3e 32e7 10bf 96e1 0dbf
000001f0: 4167 bcc0 5641 5c3e 3456 8a3e 10b3 963d
00000200: e4a1 31c0 a232 1ec0 2d6e 4640 d4c6 7cbf
00000210: 5525 99be a061 cbbf e9f0 1840 5711 b53f
00000220: f775 15bd 763b d4bd b387 863d 0082 b73e
00000230: 4301 0dc0 e662 0f3f 60a6 2dbf 6dc9 60be
00000240: 4c23 dbbd 956a edbf 2e78 f53f 2d62 8bbd
00000250: f9ac bb3f 6f08 413d 8a7a c4bd fa3e 22be
00000260: 96df c7bf 7794 b6bf 1891 80bf 9687 b83d
00000270: 0479 2f3e e492 07c0 c68e 8f3f dd12 063e
00000280: 99d6 4540 0c2f 393f 1345 6fbe e056 3e3f
00000290: 58df d4bf 070f aabf cd5f a6c0 abe5 933d
000002a0: 9af0 9f3d 781e 76bf f508 6abe 9b02 73bf
000002b0: 4ee5 583f 8909 4f3f f8b4 fbbd 268f bbbe
000002c0: 0deb 47bf e6b0 7e3f e76d aabf 0fd4 74bf
000002d0: 7ba6 3ebe 6590 a0bd 3c82 5fc0 bf8d 6bc0
000002e0: dbd8 2b3e 97e2 11bf 8400 85be e351 dabf
000002f0: 6f9d 27be ccc2 3dbf 9ef2 df3f dd53 b83e
00000300: 90c8 5cbe 3514 1e3f 0cb0 2ebf b915 c53e
00000310: 3971 313f fe47 ca3e b6f6 6d3c 36a4 e13e
00000320: da48 adbe 2532 eb3e 2e36 b1c0 ef89 013e
00000330: baeb 923e d48d 6bbf 7fdd 3bc0 5f73 0fc0
00000340: 74ed c5be 0366 75bf c74c cbbc dacc adbf
00000350: 9ebb d5be 5573 a7be 26ef 2b3e 716a a0bf
00000360: 0328 4abc 95a2 9cbf 123d bdbf 51af 00c0
00000370: adba 2c40 5334 e0bf a6c9 ec3b 4172 a4be
00000380: d4d6 0f3e 1a0e 51bf 588e cfbf a790 a5be
00000390: ed31 deb9 d682 78bf 3fc2 67c0 5d82 0a3f
000003a0: 31e3 ab3e 4783 afbf ac20 84bd f385 17c0
000003b0: 7984 9d3e 00e4 8a3f eb31 ac3f 4c5f 59bf
000003c0: 4880 723d e633 85bf e2f8 953e b97b a83e
000003d0: 0ce8 e93e 2685 aabd a5aa 603d fa33 97be
000003e0: ca4b 8f3f 1be8 6d3c 6f68 853c 32b8 263f
000003f0: 5fe7 35be 3bc4 263f 4da9 383e 453b c7bd
-0.028092366 0.51365274 0.22381991 -0.18506585 -0.29043642 -0.45465797 0.18637677 -0.048101995
0.7420401 -0.15462345 -0.0449147 0.38187534 -0.03220104 0.7218281 -0.33067784 -0.21781874
-0.4230115 0.083328456 0.06545248 -0.28338578 0.33015957 0.68518084 0.058906853 -0.5493864
-0.14283328 -0.76663464 0.33863404 0.39862728 0.22518925 -0.16620107 0.067832515 -0.19396058
0.6342915 -0.13300411 -0.38362965 0.40714 -0.044532817 -0.22574936 -0.35985762 0.03156579
0.23788773 0.15640461 -0.23638494 0.50750643 -0.06275286 -0.25650525 -0.37719935 -0.39662722
-0.18050712 0.5957516 0.36886734 0.29470605 -0.05499922 -0.07032639 0.03133424 0.22547264
-0.125161 0.24457444 -0.075767554 0.13323937 0.24809444 -0.51251286 0.5945663 -0.8269827
0.52076226 0.101914264 -0.05878157 -0.32892525 -0.36345714 -0.07353448 0.28920043 0.4243632
0.008088423 -0.10959448 -0.1653405 0.5752758 -0.3057935 -0.38151792 0.2685886 0.801103
-0.09965633 -0.4724375 -1.0388025 -0.1757376 0.103116706 -0.47372365 0.2816658 -0.113679275
0.5008148 0.18042152 -0.053659234 0.5048091 0.38223663 0.3556605 0.74990934 -0.053361483
0.16625762 0.19064677 1.718032 0.10015893 -0.0387765 -0.033011846 0.06378972 0.1358693
-0.14201392 -0.08306489 -0.013528282 0.21923944 0.0348211 -0.28867543 0.39194044 -0.007390121
0.45218232 0.38363522 0.041036215 0.027063308 0.089830644 0.10806128 0.60263014 -0.2104955
-0.24182384 0.3106872 -0.56602776 -0.5542234 -5.887604 0.21509299 0.27018893 0.07358372
-2.775506 -2.4718404 3.1004746 -0.9874089 -0.29911295 -1.5889168 2.389704 1.4145917
-0.036489453 -0.10362904 0.06568851 0.3584137 -2.203202 0.5601028 -0.67831993 -0.21951838
-0.10700092 -1.8548151 1.9177301 -0.06805835 1.4662162 0.047127184 -0.09593685 -0.15844336
-1.5615108 -1.4264058 -1.0044279 0.09010236 0.17136008 -2.1183405 1.1215446 0.13093133
3.091223 0.7233741 -0.23366193 0.7435131 -1.6630659 -1.3285836 -5.1991944 0.0722154
0.07809563 -0.9614024 -0.2285498 -0.9492585 0.8472489 0.80873924 -0.122903764 -0.3663265
-0.78093034 0.99488676 -1.331479 -0.95636076 -0.18618195 -0.07840041 -3.4923239 -3.6805265
0.16781943 -0.56986374 -0.25976956 -1.705624 -0.1636865 -0.7412536 1.7495916 0.36001483
-0.21560884 0.61749583 -0.68237376 0.38493136 0.6931339 0.3950805 0.0145241525 0.44070596
-0.33844644 0.45936695 -5.5378637 0.12650274 0.2869547 -0.9201329 -2.935394 -2.2414167
-0.38657725 -0.9585878 -0.024816884 -1.3578141 -0.41744703 -0.3270518 0.16790447 -1.2532483
-0.012338641 -1.2237116 -1.4784262 -2.0107005 2.6988938 -1.7515968 0.007226187 -0.3211842
0.14046794 -0.8166214 -1.6215315 -0.32336923 -0.00042380337 -0.9707464 -3.6212308 0.5410517
0.3357177 -1.3711938 -0.06451544 -2.3675506 0.3076513 1.085083 1.3452734 -0.84911036
0.05920437 -1.0406463 0.29291445 0.32906893 0.4568485 -0.08326177 0.05485024 -0.29531842
1.1195004 0.01452067 0.01628515 0.6512481 -0.17764042 0.65143174 0.18033333 -0.09728102

embedder.emb_rnn.weight_hh_l0 f4 [60, 20]
00000000: 6070 34be 7592 68be 99f5 8cbe 787b 51be
00000010: e33a e03d 0f66 08be 4300 693e 5f04 39be
00000020: 5ee6 ffbd cf63 80be 9059 79bd ee61 13bd
00000030: 5cab 93be 0492 7a3d c41e e0bc a5cf 80bb
00000040: 80f0 65be 3d49 bfbd 1230 62be 8448 f13d
00000050: 298c 93be f258 533d 3314 aa3c 3bc1 863d
00000060: afce 99be dd15 9a3c e636 32be 70ed ddbc
00000070: 5674 4dbb 7fdd 45bd 46a6 c33c 501d aa3d
00000080: c4f4 ed3e 49ef fc3d 0d45 243d a06b a73d
00000090: 448e 28be f253 a63d b8c9 543e a237 f6bd
000000a0: 9d6c 0abe 65ff 1b3e 7034 d03d 7993 8f3e
000000b0: ffba 953b e71d d63d 0dd0 4b3e 1e3c 843e
000000c0: c209 7d3e 56d8 763e 4804 fb3d 354c 51bd
000000d0: 90a7 e5bb f26c d9bd 5379 8abd 9965 333e
000000e0: 8832 073d 6e91 b23d e00a 113e c6b2 1d3e
000000f0: 14f2 f8bd 5383 2abe 468e 84bc 2dae c33b
00000100: 886a ecbd e28e b53c ecdc a03e 5d54 923e
00000110: e42a 1abd f2e7 5fbd c5b8 873d d75e 9fbd
00000120: 5a2b 923c 39b9 e23d 524d a83d bd89 2dbd
00000130: 3842 e73d 32e8 87bd 3a99 6c3e 2ffe 93be
00000140: e09d f8bd a0e8 d0bd 0f9f 94be c1f3 cdbd
00000150: fbdc c63d ff7e 05bd 342f 543e a715 a6be
00000160: fd5b 633c 9579 14bd 8dcc bebe 5836 c53c
00000170: 6a77 213e 6fe9 ac3e 017d 58be 7ae7 fc3b
00000180: 5c8c 17be 1cb0 0abe 0668 963d 07fa 8c3e
00000190: e836 12bb 840c 59be 827d 9fbe 81d2 89be
000001a0: d3a8 e7bd 4984 adbe d31f 7f3d 42ee 323d
000001b0: d055 713e 9d17 c4bd c681 38be 67e2 8fbd
000001c0: fdc6 41bc d2fb 99bb 7516 a1bd 313d a6be
000001d0: d38e 8cbd 9cff ccbe 2394 b9be 45e7 81be
000001e0: 4b32 06bd b464 9c3e bc03 cb3d 3d51 143e
000001f0: 252a e73d a9ac 21bd 5e27 9bbd 247b ed3d
00000200: 0dcb 1e3d a545 6abd fad8 233e 07f9 b63d
00000210: 338c 253d 6894 ec3d ae58 a2bc 47d9 b83d
00000220: ec8d 483d 86fa 883d 89ae 613e 4e73 203d
00000230: 8ac6 133d 6ce1 9bbe bb54 b4bb 1e7c d2bd
00000240: e783 c1bd 94cf 84bc 168f f6bd 57b7 023e
00000250: df24 dabd 0202 b03d 6d3e 10bb 4c0b babd
00000260: 30db 133e 132f 623d 1298 fbbd 8ea0 2bbe
00000270: 2a97 0cbc cc2e 3fbd cbab 09be 806f 00bd
00000280: 1b82 5f3e bffb b3bc 3f78 1ebc 21a8 f63d
00000290: 82d9 e23d 66ce 80bd 0377 823d 47c8 1f3d
000002a0: 28b0 903e 4400 d9bc 7e0a c0bd 82f4 e4bd
000002b0: 8d06 7e3d 024b 17be 3862 b23d 7e08 873d
000002c0: 9c48 493e 4a84 3e3e bd24 843e 7243 293e
000002d0: 75c0 423e ea2f 8d3c 1bcd d3bc 74c9 bc3d
000002e0: 9f07 b9be 976a 8a3c 7739 8cbe 74e0 b03e
000002f0: 79cf 1b3e 1f14 a93c 1fd2 15be 82bf 66be
00000300: ca5d 803d 38e8 6b3e 4f92 8e3d ff0b 96bd
00000310: 30db 4abd 3bb5 76be 5daf c33b 91b6 a1bd
00000320: 3703 74bd bc06 6bbc 0d46 28be 9dce 4abe
00000330: 2dc1 09bd 2749 fb3c b668 5a3d 1613 09bd
00000340: 894a 45be 82a5 86be 7fa0 8fbe a70e a2bc
00000350: c6bc 19be 94c3 003e 9710 86be 06c7 65be
00000360: decf 81be 64d9 b4bd 502e 2ebd e859 7cbe
00000370: 295e d6bb 5edf 3e3e 0c42 123e 905f 1f3e
00000380: 8ba8 1a3e 1cdd cd3d f1a4 15be 179b a7bd
00000390: e99c 3d3e 2283 76bd b81e 16be 6a0a 21bd
000003a0: d2a0 593e 62b1 693e 61b1 5a3d 0cf5 303e
000003b0: 3452 163e b4ac 363e b287 3e3d ca5f fa3d
000003c0: 41d7 19be 08cb 783d 63c4 6f3e e8b0 57be
000003d0: c0cf 7bbe d0c5 80be eec1 893e db94 67be
000003e0: 6d3a 0dbe 4cb8 a1bd 2d4a 9cbe f5b3 d53d
000003f0: 2628 893e b62c a4bc f201 9fbd e800 1dbe
-0.17620993 -0.22712119 -0.27531126 -0.20457256 0.10948732 -0.13320182 0.22754006 -0.18068074
-0.12495111 -0.25076148 -0.06087643 -0.035982065 -0.28841674 0.061174408 -0.02735842 -0.003931003
-0.22455025 -0.09340141 -0.2208865 0.117814094 -0.2881787 0.051598497 0.020761585 0.065798245
-0.300405 0.018809253 -0.17403755 -0.027090758 -0.003134986 -0.04830694 0.023882996 0.08306372
0.46475804 0.123503275 0.040104914 0.08174825 -0.1646052 0.0812148 0.20780075 -0.1202233
-0.13517995 0.15234144 0.10166252 0.280422 0.004569411 0.10454922 0.19903584 0.25827116
0.24710754 0.24105963 0.12256676 -0.051098067 -0.0070085004 -0.10616483 -0.06761422 0.17519225
0.033007175 0.08719145 0.14164305 0.15400228 -0.12155548 -0.16651659 -0.016181123 0.005971691
-0.11543757 0.022162858 0.3141855 0.2857999 -0.03763856 -0.05466456 0.06627039 -0.07781761
0.017842937 0.11070485 0.08217873 -0.042367686 0.11291927 -0.066360846 0.23105326 -0.28904864
-0.12139487 -0.1020062 -0.29027602 -0.10056258 0.097101174 -0.032591816 0.20721132 -0.32438394
0.013876912 -0.036248762 -0.37265435 0.024073765 0.15768209 0.33771846 -0.21141435 0.007718024
-0.14799637 -0.13543743 0.0734406 0.27534506 -0.0022310559 -0.2119618 -0.31150442 -0.26918414
-0.113114975 -0.33889988 0.06228621 0.04368425 0.23567891 -0.095748164 -0.18018255 -0.07025605
-0.011827228 -0.004699209 -0.078656115 -0.3246856 -0.06863179 -0.40038764 -0.36245832 -0.25371757
-0.032762807 0.3054558 0.09912822 0.14484115 0.11287335 -0.039471302 -0.07575868 0.11595753
0.038767863 -0.057195324 0.16000739 0.08934217 0.040416908 0.11551744 -0.019817676 0.09025817
0.048963472 0.066884086 0.22039236 0.039172463 0.036078013 -0.3044542 -0.0055032647 -0.1027758
-0.094489865 -0.016212262 -0.1203901 0.12765251 -0.10651564 0.08594133 -0.0022009865 -0.09084186
0.14439082 0.055220675 -0.122848645 -0.16760466 -0.008580962 -0.04667549 -0.1344444 -0.031356335
0.21826975 -0.021970628 -0.009672224 0.12043787 0.110766426 -0.062893674 0.06370356 0.03900936
0.28259397 -0.026489384 -0.09377001 -0.11179449 0.062017966 -0.14774707 0.0871014 0.06593417
0.19656605 0.18605152 0.2580928 0.16529635 0.19018729 0.017234761 -0.025854638 0.09218112
-0.36138627 0.01689653 -0.27387592 0.34546244 0.15215863 0.020639477 -0.14630936 -0.22533992
0.06267889 0.23037803 0.069615 -0.07326507 -0.04952544 -0.24092571 0.0059718327 -0.0789615
-0.05957338 -0.014344867 -0.16432972 -0.19805379 -0.033631492 0.03067453 0.053322516 -0.033465467
-0.19266714 -0.26298147 -0.28052136 -0.019782377 -0.15013418 0.12574607 -0.26184532 -0.22439203
-0.25353903 -0.088305265 -0.042524636 -0.24643672 -0.0065419865 0.18639895 0.14283007 0.15563798
0.15103357 0.10051939 -0.14613701 -0.08183878 0.18516888 -0.06018365 -0.14660156 -0.039316572
0.21252754 0.22821572 0.053391818 0.17280978 0.14679796 0.17839319 0.046516128 0.122253016
-0.15023519 0.0607405 0.2341476 -0.21063578 -0.24590969 -0.2515092 0.2690577 -0.22615378
-0.13791819 -0.0789648 -0.30525342 0.10434715 0.26788443 -0.020040851 -0.07764043 -0.15332377

embedder.emb_rnn.bias_ih_l0 f4 [60]
00000000: 94bb 5f3f d8f6 883f bdc7 933f 4185 7d3f
00000010: 841d 603f 0d8e 593f 0fe1 8c3f 5cfb 6c3f
00000020: eda3 8b3f cdb8 8f3f 89e1 693f 5325 863f
00000030: 27f4 7a3f 23da 5a3f ae16 703f fcf4 bb3f
00000040: 6598 893f a9e6 873f 9f74 983f 0005 633f
00000050: 3bd5 243f 9c3d e4be 6ae7 d03e af8a 2b3f
00000060: dab1 363e e17a acbe 83ab d73d 7b64 6d3e
00000070: b68c 76bc eff7 363e 1d29 42bf bb2d e4bd
00000080: 8d93 b03f bb7e 473f 7145 debf 769e 81bf
00000090: dba4 8dbf 72ef f63e 3753 8abf 0050 cc3d
000000a0: 616b 583f 8b9e 8d3f 7a1a 953f 8b77 893f
000000b0: 7646 5f3f 200d 6e3f 5e08 5f3f 61ee 533f
000000c0: e1b3 8a3f 8a09 963f 2da1 813f 68af 773f
000000d0: 2f87 593f 5a18 523f 1919 8a3f eaac 9a3f
000000e0: cf65 893f 95f0 893f 0257 a43f 1237 593f
0.87395597 1.0700331 1.154533 0.99031454 0.8754504 0.8498238 1.1006182 0.92571044
1.0909401 1.1228272 0.91359764 1.048014 0.98028797 0.854891 0.93784606 1.4684138
1.0749632 1.0617267 1.191059 0.88679504 0.64387864 -0.44578254 0.40801555 0.6700849
0.17841282 -0.336875 0.1053076 0.23182862 -0.015048197 0.17868017 -0.75843984 -0.11141535
1.3795029 0.7792775 -1.7364942 -1.0126483 -1.1065935 0.48229557 -1.0806645 0.09976196
0.8453885 1.1064008 1.1648705 1.0739607 0.8721689 0.9298878 0.8712214 0.8278561
1.0836145 1.1721661 1.0127312 0.96752024 0.849719 0.8206841 1.0788909 1.2084019
1.0734195 1.0776545 1.2839053 0.84849656

embedder.emb_rnn.bias_hh_l0 f4 [60]
00000000: 94bb 5f3f d8f6 883f bdc7 933f 4185 7d3f
00000010: 841d 603f 0d8e 593f 0fe1 8c3f 5cfb 6c3f
00000020: eda3 8b3f cdb8 8f3f 89e1 693f 5325 863f
00000030: 27f4 7a3f 23da 5a3f ae16 703f fcf4 bb3f
00000040: 6598 893f a9e6 873f 9f74 983f 0005 633f
00000050: 3bd5 243f 9c3d e4be 6ae7 d03e af8a 2b3f
00000060: dab1 363e e17a acbe 83ab d73d 7b64 6d3e
00000070: b68c 76bc eff7 363e 1d29 42bf bb2d e4bd
00000080: 8d93 b03f bb7e 473f 7145 debf 769e 81bf
00000090: dba4 8dbf 72ef f63e 3753 8abf 0050 cc3d
000000a0: d0cc 5d3f e9b1 8d3f a4dc 953f 4325 8c3f
000000b0: 4ebb 5b3f b401 733f 1f77 613f 9dae 503f
000000c0: 8e56 8a3f 409c 963f f4ab 873f ebf3 773f
000000d0: 0c8c 6a3f 77a1 3c3f c391 8f3f f965 9a3f
000000e0: 1161 863f d312 8b3f 12ad ae3f 6e2b 563f
0.87395597 1.0700331 1.154533 0.99031454 0.8754504 0.8498238 1.1006182 0.92571044
1.0909401 1.1228272 0.91359764 1.048014 0.98028797 0.854891 0.93784606 1.4684138
1.0749632 1.0617267 1.191059 0.88679504 0.64387864 -0.44578254 0.40801555 0.6700849
0.17841282 -0.336875 0.1053076 0.23182862 -0.015048197 0.17868017 -0.75843984 -0.11141535
1.3795029 0.7792775 -1.7364942 -1.0126483 -1.1065935 0.48229557 -1.0806645 0.09976196
0.86640644 1.1069919 1.1707959 1.0948871 0.8583268 0.94924474 0.8807239 0.8151644
1.0807664 1.1766434 1.0599351 0.96856564 0.91619945 0.73683876 1.1216358 1.206237
1.0498372 1.086512 1.3646567 0.8366002

embedder.emb_rnn.weight_ih_l1 f4 [60, 20]
00000000: 4b69 833e 80dd 6ebd d1a7 a63d f12c 2b3e
00000010: badd 05be 6958 d5bd c472 eebc 110c fb3a
00000020: 510a 67bd e63c c2bd 1f3d 73be b282 b9be
00000030: 217d fd3d ad89 783e e2ad 483e 6a6c 023e
00000040: cc81 643e 1071 26be 8049 63be 9e24 52be
00000050: c265 1bbc 56aa 9abe 26ae a7be dd1c 3abe
00000060: f338 153f 18c0 75be 50da 1cbf a5d7 8bbe
00000070: 83dc a0be 39cb 7b3d 3fbb adbe 2af8 7c3e
00000080: 0832 dcbd f428 74be 2397 74be 2158 013c
00000090: 9de1 9abe a66f 8abe 9157 b53d 1464 e7bd
000000a0: f3ec 523d 2d3b 2f3e 08e5 abbe 9f97 17bd
000000b0: 323e febd 1efd 82be cb2c e33d 79e7 983e
000000c0: ca50 e8bd 3e5a 07be 4055 6d3d b9ef 8ebe
000000d0: 5644 bb3d 7467 ed3c 7b03 93be 9f6c 013e
000000e0: 3f21 053e 692a a3be 5d51 fdbd 8e64 90bc
000000f0: f1d1 0f3e f01f 7f3e 4274 8d3e 468e 23bd
00000100: e723 233e 9efa aa3e 41d4 06be 460b 743e
00000110: b559 223e d5f4 d03d f1df ca3e 27f8 95bc
00000120: 65c6 08bd e5d4 5dbe 839f a93e 9e53 babd
00000130: 808a b63e ed31 f8bd 35ed 853e c261 92bd
00000140: c785 0dbe d597 adbe c228 96be 1023 45be
00000150: afbc 693e 0677 3b3e a477 ff3c 6eaa d4be
00000160: 9f71 a7be 71fb 58be 1e1a cbbd f59e 8f3d
00000170: 2cb3 5aba 29bf c3be 9f7c 9ebd 7d7c 853d
00000180: be64 a8be c641 aabe 0d8a d1be 1a1f 1e3e
00000190: 56f9 1c3f 29b5 54be ea23 ccbd a9a8 073e
000001a0: 7679 8cbe 92a3 4d3e b3e0 c9be 77b8 923e
000001b0: 0114 f1bc 7485 473e 953b 1ebd afa0 fcbd
000001c0: aa50 653c 2a57 d73e d3fd 9ebe 0af1 0dbe
000001d0: daac a2be 8f44 a33c 9435 eabd f4b8 e6be
000001e0: c216 62be e757 483e 7ab3 9d3e cee1 ab3e
000001f0: 9bb5 963e a556 b0bd 650b 833e a72a 9c3e
00000200: 6e11 f53d a7b8 1bbe 5ba3 cebd be37 72be
00000210: c0ab 3b3e 6dcc 0d3e 16c2 903e 9940 90bc
00000220: 61e7 873b 855b 2f3e aa7c 13bd 7668 a93d
00000230: fba0 c13b 2160 25bd ecbf 193e bddf 783b
00000240: f536 b43e 166e 41be 0fc1 8b3e 4d20 4e3e
00000250: a62a 49be 5b77 ea3d b464 433d a142 973d
00000260: c3ac 833e 08ac 2cbd 950d c8bd 97ca 0dbe
00000270: f9f5 7f3e ce0d 39be a988 dfbd 810d af3e
00000280: 78f1 a93d 7e9f 94bd 0f1e 81bd dbee 03bf
00000290: 8b57 3bbd 1077 9ebe 52e9 a03e f769 02be
000002a0: 5dc6 97be a152 dfbd 4d1b debd f71f 46be
000002b0: 5a46 53bf 48ca 25bc 192e 15be a0dc b33b
000002c0: d35f 1abe c7fe bdbd 7cfb 2abe 24cf 4fbe
000002d0: 830f 873d 6961 8d3e b101 d33a af13 ac3c
000002e0: e80e da3c d898 493e 7d5a 58bb e68c b43d
000002f0: 871c 25be a6a2 43be c1e2 efbd f777 0d3e
00000300: d996 493e ad64 c23d 65a9 763e d3c6 87bd
00000310: aa27 9bbd 1360 463d 70aa 62be a38f 9dbe
00000320: 8d76 d33d 633f 4dbe f2c3 b23c 049b 33be
00000330: b2f5 19bf b8dd 9dbe 65be c5be dd6e b23e
00000340: d66d c1be a78d abbe 16d5 a0be 91cf c7be
00000350: 9e8b 473d 3537 db3e 6fd7 dc3d 303d 6ebd
00000360: 1085 823d f1d0 9bbe 7f8e 0e3e a6ce 32be
00000370: 84fd 973d 1bed 983e 9aa1 593d c55b 8fbb
00000380: 096b 1abd 9ed7 a7bd 6602 763c 6457 173e
00000390: 9205 253e d038 cb3d beea 683e f48b 53be
000003a0: 130d b3bd 6305 babe 8725 cb3e b805 06be
000003b0: 80cb 7d3e e769 a13e 5c1f 183d 423f 3dbc
000003c0: cdde 763e 2f64 aebe 2704 a7be afaa 09bd
000003d0: 7b69 bbbe 3293 5cbe 7ba4 8bbe ce0b 0c3f
000003e0: b33b b83d cae5 df3c efc1 f63d b170 93be
000003f0: 94d2 0c3e dae3 1f3e de4d 26bb f777 49be
0.2566627 -0.058316708 0.08137477 0.16716363 -0.13072863 -0.104172535 -0.029107459 0.0019153376
-0.056406323 -0.09484272 -0.23753785 -0.36232525 0.12377382 0.24271269 0.19597581 0.12736669
0.22315139 -0.16254067 -0.22196007 -0.20521781 -0.00948471 -0.3020808 -0.32750052 -0.18175073
0.5829002 -0.23999059 -0.6127062 -0.2731296 -0.31418237 0.061473105 -0.3393192 0.24704042
-0.1075173 -0.23843747 -0.23885779 0.007894547 -0.30250254 -0.27038306 0.088545926 -0.11298385
0.051495504 0.17112418 -0.33573174 -0.03700983 -0.124142066 -0.25583738 0.11092528 0.298641
-0.11343534 -0.13218018 0.05794263 -0.2791727 0.091438934 0.028979994 -0.28713593 0.12639092
0.13000964 -0.31868294 -0.123690344 -0.017626073 0.1404493 0.24914527 0.2762776 -0.039930604
0.15931664 0.3339433 -0.13166906 0.23832425 0.15854533 0.10202948 0.3962398 -0.018306805
-0.03339233 -0.21663244 0.3312951 -0.0909798 0.35652542 -0.121188976 0.26157537 -0.07147552
-0.13820563 -0.339049 -0.2932797 -0.19251657 0.22825883 0.18307123 0.031184979 -0.41536278
-0.32703874 -0.21189667 -0.09917091 0.070127405 -0.0008342739 -0.3823178 -0.07738613 0.06517885
-0.3288936 -0.33253306 -0.40925637 0.15441552 0.61317956 -0.20772232 -0.099677876 0.13247932
-0.27436417 0.20081928 -0.39429244 0.2865636 -0.029428484 0.19484502 -0.03863104 -0.123353355
0.013996283 0.42058688 -0.31053028 -0.1386148 -0.317725 0.019930152 -0.114360005 -0.45062983
-0.22078994 0.19564782 0.30800992 0.33570713 0.2943543 -0.08610276 0.2559463 0.3050129
0.11966215 -0.15207158 -0.10089751 -0.23654076 0.18327236 0.13847513 0.28273076 -0.017608928
0.0041474556 0.17124756 -0.03600756 0.082718775 0.005909083 -0.04037488 0.15014619 0.0037975155
0.3519818 -0.1888965 0.2729573 0.2012951 -0.19645175 0.114485465 0.04770346 0.07385755
0.25717744 -0.04215625 -0.097682156 -0.13846813 0.24996175 -0.18071672 -0.10914738 0.3418999
0.0829801 -0.07256983 -0.06304561 -0.5153634 -0.045737784 -0.30950212 0.3142801 -0.12735735
-0.29643527 -0.10904432 -0.10845051 -0.19348131 -0.8252922 -0.010119028 -0.14568366 0.005488947
-0.15075617 -0.092771105 -0.16697496 -0.20293862 0.065947555 0.2761338 0.0016098527 0.02100548
0.026618436 0.19687212 -0.003301292 0.08815937 -0.16124164 -0.19105014 -0.11713172 0.13815294
0.1968645 0.09491859 0.24088056 -0.066297196 -0.07575925 0.048431467 -0.22135329 -0.3077365
0.10325346 -0.20043711 0.02182195 -0.17539603 -0.60140526 -0.3083322 -0.38621822 0.34850207
-0.3777911 -0.3350651 -0.31412572 -0.39025548 0.048717134 0.42815557 0.10783278 -0.05816382
0.06373036 -0.30432847 0.13921545 -0.17461643 0.07421401 0.29868397 0.05313263 -0.0043749535
-0.037699733 -0.081954226 0.01501522 0.1477943 0.16115406 0.099229455 0.22745797 -0.20658857
-0.08742728 -0.36332235 0.3967707 -0.13088119 0.2478466 0.3152611 0.03713928 -0.011550726
0.24108429 -0.3406081 -0.32620355 -0.033610042 -0.36603913 -0.21540526 -0.27273926 0.5470551
0.08995762 0.027331252 0.12048709 -0.28796914 0.13752204 0.15614262 -0.0025376002 -0.19674669

embedder.emb_rnn.weight_hh_l1 f4 [60, 20]
00000000: 3abd 77bb e14f f73c 8878 3fbd 5ada 07be
00000010: d205 4bbe a9cd 83be 5c99 e63d 3c68 76bd
00000020: b4a5 223e 6a6a 28bd 606f 0c3e 3fc0 cebd
00000030: 28d7 54be 60c4 7a3e b87a 81bd 6108 c4be
00000040: 9144 1d3c 865b 063e 01e9 c7bd 8014 ad3b
00000050: dbd1 adbd e8bd 3abe 5040 7bbe 3a63 81be
00000060: 77f7 74bd 4c46 54be 80d4 18bb 0b5c cc3d
00000070: fe3d 993c 1386 d4be 5576 f53d 8b2c 4ebe
00000080: ce6c 0abc 56db 5abe 95fc 67bd e59a b13d
00000090: 3d17 ba3d d8d0 eb3b 6636 2a3e b57e 043d
000000a0: 45bb 9a3d 57ba 033e 0606 92be f279 083c
000000b0: 3a16 c7be ba16 52be bef3 453d 0de7 0abe
000000c0: e9c1 c1bd 326e 81be 87be 533e dc7d 8abd
000000d0: ca73 f93d 2a15 633d 351a 713e 931f 75bd
000000e0: 03b1 a1be 5fce 4f3e 3f69 083d 1d48 84be
000000f0: 3d76 f93d e71b 233e c2f7 d83d 8f2a 84bc
00000100: 582a e4bc 4a2a 67bd 15a0 483e 9ae4 e3bd
00000110: 91d2 19be 4b07 cb3d 403e d3bb cee3 8a3d
00000120: ff2b 093e bc4b 343e 2507 38be 0df7 573e
00000130: 2df9 b33d ab16 95bd c18c cdbe 6893 2e3d
00000140: b3b9 c4be f244 06be e596 1abb a13f 18be
00000150: 437b 42be 401f aabd 4cf9 4fbe 90d4 ad3d
00000160: 0c0b 413e ff95 ef3c 36f7 12be 1c49 bcbd
00000170: 01e9 30be 4527 70bd a5d0 5bbd 1866 82be
00000180: 659d 22be 67bb a53d c217 4fbd 1735 bcbe
00000190: f381 fcbc c31f 0d3e 9680 61bd 0469 bfbd
000001a0: d85c 0c3b c4c1 31be af9c 543d a42e a3be
000001b0: 9698 b63c 16f8 07be 4dc3 013c 9aad f6bc
000001c0: 0e84 7b3d 7570 93bd 1784 2abe 3c96 c5be
000001d0: 3663 8a3d a93e ee3c 0029 3a3e ecc9 09be
000001e0: 8e18 3abe ad5b c33c 7590 e53b 69a7 0f3d
000001f0: 3214 9e3e 6c23 1b3e d76b 85bd b0a8 9abd
00000200: 5fc0 10be 5873 c2bd 0b1e 03be 94cb f23c
00000210: 1060 f23d 5802 26be 3e0d 85bb ee8f a63a
00000220: 562a 5b3d 8f24 ebbd 3a2e 3a3d 3c57 463e
00000230: 757d 40be 7e34 893e 0b3b 003e 23fa 843c
00000240: aecb 79be 165f 853d 060a 8a3c 0232 40bd
00000250: a9d2 bf3e 526e 383d 4025 893e e45e c83c
00000260: d984 643e 6929 05be 66e9 5f3e a74f 92bd
00000270: b07e 2d3e 53eb 92be f7e4 553e 091d 053d
00000280: f49e acbe 81c4 a93b 7182 f0be d8dd 85be
00000290: 1dd7 c9bd ea03 5b3d 2370 a6be 635c 7dbe
000002a0: ff54 9b3d 7a5c 68be 636f af3e 1890 9dbe
000002b0: 0096 4dbe 1be1 c53d a3b2 813e 91d4 8dbc
000002c0: 828d 86be 56fc d13e 4f0f d73c 1428 d0be
000002d0: 0fa9 9c3c f958 ba3e ac3c 7cbd 8ce5 2ebe
000002e0: fb14 b9be 854e 603e bacb 813c 8412 bb3d
000002f0: dd80 643e 1b51 9cbd 959d 2a3e cd72 10be
00000300: 9e30 033e d567 3c3e f03e 923e e4c0 9e3e
00000310: c52e 343e e3ce e9bd 935d 6a3e aa10 9dbe
00000320: 2097 baba e7ce e93d 2da9 abbd f62b a8bd
00000330: 942f 0e3d 6ef0 90be b338 c2bd a54c 87bd
00000340: 035a 34be edc4 3a3d 54f7 ba3d f4da 50be
00000350: b205 49bd fbd8 163d 217b 683e 1604 11be
00000360: 02dc d9bd 4aed 1a3e 6672 af3d 46c9 71bd
00000370: f073 063e a5b2 b93e aece 93bd e018 093e
00000380: f053 713e fb3e 503e 84ae 5e3e d2dc fb3c
00000390: fd5a 6fbd 3d3e 6a3d 5a2d 933d 8984 6c3d
000003a0: e216 973e 880e 67bd 5b06 b8bd f9cf 423e
000003b0: 6f67 f83d b6f4 6c3b 2cba 68be 1126 c63d
000003c0: f0be d63d db12 95be d61c 173e 5944 0dbd
000003d0: 45ae 93bd c31f b13d f813 7b3d 27e2 03be
000003e0: 3010 4abe 3e8d b6bb 0a7e 87bd 66cb 32be
000003f0: 662b a5be e0f5 bbbd 75be 47be c297 63bd
-0.0037801997 0.030189456 -0.046745807 -0.13266888 -0.19826439 -0.25742844 0.1125972 -0.060158
0.15883523 -0.04111711 0.13714361 -0.10095262 -0.207852 0.24488974 -0.06322235 -0.38287643
0.009598867 0.13120851 -0.09761239 0.005281985 -0.084872924 -0.18236506 -0.24536252 -0.25271016
-0.059806313 -0.20729941 -0.002332002 0.09978493 0.018706318 -0.4150854 0.11985461 -0.2013418
-0.008448793 -0.21372733 -0.056637365 0.08672122 0.090864636 0.007196527 0.16622314 0.0323474
0.0755525 0.12864052 -0.2852022 0.008329855 -0.38884145 -0.20516482 0.048328154 -0.13564701
-0.094608136 -0.25279385 0.20678149 -0.06762287 0.12180288 0.055440105 0.23545153 -0.059844565
-0.31580362 0.20293568 0.033303495 -0.25836268 0.12180755 0.15928613 0.10594131 -0.016133575
-0.027852222 -0.056436814 0.19592316 -0.11127587 -0.15021731 0.099135004 -0.0064466298 0.067817315
0.1339569 0.17607015 -0.17971475 0.21090336 0.08787761 -0.07279714 -0.4014645 0.042621046
-0.38422927 -0.13112238 -0.0023588475 -0.14868023 -0.18992333 -0.08306742 -0.20309943 0.08487809
0.1885187 0.029246328 -0.14352116 -0.09193632 -0.17276384 -0.0586312 -0.053665776 -0.25468516
-0.15880354 0.08092385 -0.050559767 -0.36759254 -0.030823683 0.13781647 -0.05505427 -0.09346202
0.0021417644 -0.17359072 0.051907238 -0.3187152 0.022289556 -0.13278231 0.0079200985 -0.030112077
0.061405234 -0.07199184 -0.16651951 -0.38591182 0.06757204 0.029082613 0.18179703 -0.13455933
-0.1817343 0.023847425 0.007005746 0.035071764 0.30874783 0.15150231 -0.065147094 -0.07551706
-0.14135884 -0.09494656 -0.12804429 0.02963809 0.11834729 -0.16211832 -0.0040604165 0.0012707689
0.05350717 -0.114815824 0.04545424 0.19369215 -0.18797858 0.2679786 0.12522523 0.016232556
-0.24394104 0.06512277 0.016850483 -0.04692269 0.37465408 0.045027085 0.26786232 0.02445931
0.22316302 -0.13004078 0.21866378 -0.07144099 0.16942859 -0.28695163 0.20888124 0.032498393
-0.33715022 0.005180896 -0.4697452 -0.26145816 -0.09855483 0.05347053 -0.3250743 -0.24742274
0.07584571 -0.22691527 0.3426467 -0.30773997 -0.20076752 0.09662076 0.25331602 -0.017313274
-0.26279837 0.4101283 0.026252417 -0.40655577 0.019123582 0.36396006 -0.0615813 -0.17079753
-0.3614882 0.21904953 0.015844215 0.09134391 0.22314782 -0.07632657 0.16661675 -0.14106293
0.12811515 0.18398984 0.28563643 0.3100654 0.17595966 -0.11416414 0.22887258 -0.30676776
-0.0014235713 0.114164166 -0.08381877 -0.0821151 0.034713343 -0.28308433 -0.09483471 -0.06606416
-0.17612462 0.04559796 0.09129205 -0.20396024 -0.049077697 0.036828022 0.2270322 -0.14161715
-0.10637666 0.15129581 0.08566742 -0.05902984 0.13130164 0.36269107 -0.072171554 0.13388395
0.23567176 0.20336525 0.2174626 0.030744944 -0.058436383 0.05718826 0.071863845 0.057743583
0.29509646 -0.056410342 -0.08985587 0.19024648 0.121291034 0.0036156601 -0.22727269 0.09675229
0.10485637 -0.29115948 0.14757094 -0.03448901 -0.07210974 0.08648636 0.06129834 -0.12879239
-0.19732738 -0.0055710366 -0.06615837 -0.17460403 -0.32259673 -0.09177756 -0.19506247 -0.05556465

embedder.emb_rnn.bias_ih_l1 f4 [60]
00000000: a5d5 7a3f 7d96 5c3f f305 723f daf8 8c3f
00000010: 1e8f 5f3f b0ec 703f 1687 8e3f 9ca7 873f
00000020: a7fc 403f c226 813f 3144 643f a17d 8e3f
00000030: b428 613f 690f 343f d636 593f db9e 463f
00000040: 31c1 a53f 29d9 0b3f 7ee7 733f fc79 913f
00000050: 709c b13e 41f1 103f 8434 bd3e 0ce1 d93e
00000060: 227e 7d3f 577f 8b3e dc30 4a3f f527 563f
00000070: 6e57 b53e caa4 083f 8951 953e 9495 6b3f
00000080: 1999 da3e a2ef d53e 0cfa 9b3e d694 673e
00000090: 7809 873d b9d4 0e3f 62dc 7b3f 12f4 403f
000000a0: 4ea0 683f 28a1 723f 5da1 8d3f 04e2 873f
000000b0: 2257 753f 37f8 793f c77f 913f 4b74 843f
000000c0: dc42 673f e363 913f 53c5 673f c01c 953f
000000d0: ebe1 6c3f a692 663f 312d 653f cfce 803f
000000e0: 218e a33f d129 5f3f 9b22 623f 3b57 933f
0.97982246 0.86167127 0.9454033 1.1013443 0.87327754 0.94111156 1.1134975 1.0598025
0.75385517 1.0089953 0.8916655 1.1132089 0.87952733 0.70336014 0.848493 0.77586144
1.2949582 0.54628235 0.95275104 1.1365352 0.34689665 0.56618124 0.3695413 0.4255451
0.9902059 0.2724559 0.78980803 0.8365472 0.35418266 0.5337645 0.2916377 0.92025113
0.4269493 0.41784388 0.30464208 0.2261537 0.06593603 0.5579334 0.9838315 0.7537242
0.90869606 0.94777155 1.1064869 1.061585 0.9583608 0.9764437 1.136712 1.034799
0.90336394 1.1358608 0.9053547 1.1649399 0.92532223 0.9006752 0.8952208 1.0063113
1.2777749 0.8717318 0.88334054 1.1510996

embedder.emb_rnn.bias_hh_l1 f4 [60]
00000000: a5d5 7a3f 7d96 5c3f f305 723f daf8 8c3f
00000010: 1e8f 5f3f b0ec 703f 1687 8e3f 9ca7 873f
00000020: a7fc 403f c226 813f 3144 643f a17d 8e3f
00000030: b428 613f 690f 343f d636 593f db9e 463f
00000040: 31c1 a53f 29d9 0b3f 7ee7 733f fc79 913f
00000050: 709c b13e 41f1 103f 8434 bd3e 0ce1 d93e
00000060: 227e 7d3f 577f 8b3e dc30 4a3f f527 563f
00000070: 6e57 b53e caa4 083f 8951 953e 9495 6b3f
00000080: 1999 da3e a2ef d53e 0cfa 9b3e d694 673e
00000090: 7809 873d b9d4 0e3f 62dc 7b3f 12f4 403f
000000a0: 5a58 6d3f bb26 6d3f a208 903f 40f5 873f
000000b0: 60d1 6e3f b84c 833f cc9b 913f 3294 843f
000000c0: 76d4 693f 2f21 903f 014f 803f 87ae 953f
000000d0: bc5e 793f a58d 653f c705 7f3f ef2d 753f
000000e0: a658 a33f fa2b a33f 41c3 5c3f 448d 933f
0.97982246 0.86167127 0.9454033 1.1013443 0.87327754 0.94111156 1.1134975 1.0598025
0.75385517 1.0089953 0.8916655 1.1132089 0.87952733 0.70336014 0.848493 0.77586144
1.2949582 0.54628235 0.95275104 1.1365352 0.34689665 0.56618124 0.3695413 0.4255451
0.9902059 0.2724559 0.78980803 0.8365472 0.35418266 0.5337645 0.2916377 0.92025113
0.4269493 0.41784388 0.30464208 0.2261537 0.06593603 0.5579334 0.9838315 0.7537242
0.9271294 0.92637223 1.1252635 1.0621719 0.9328823 1.0257788 1.137567 1.0357726
0.91339815 1.1260127 1.002411 1.1693887 0.9741018 0.8966926 0.9961819 0.95773214
1.2761428 1.2747796 0.86235434 1.1527486

embedder.emb_rnn.weight_ih_l2 f4 [60, 20]
00000000: dbe7 973e 746f c2be 0840 c4be 4770 c33d
00000010: f295 0e3f 273b 1ebf 56c3 2ebe 2c2c 8ebe
00000020: f37a 06bf c3e3 e6bd 54ae 57bd 8b52 bebe
00000030: bbfa aebe 31b6 47be 2340 013c 7103 ddbe
00000040: 4d6f adbe 7fe9 633e 315e 623e a300 25bc
00000050: a047 6fbd 8d89 27bd ad8b 983d 2337 66be
00000060: 1625 8bbe a3d8 cb3e 2ce2 ce3d b4cb e7bd
00000070: 94c5 b73e 8865 13be f439 313e 845e a5be
00000080: 7f7d 483d c8d5 4c3d 2098 dd3d c644 b43e
00000090: 98a9 423d 356b 7ebe f7ec 9e3e 5412 d33d
000000a0: a84f bcbd 75cc 293c 8282 b03e 0d6e 71bc
000000b0: 3df7 58be d23d 943e f4b9 433e 2e7c 5f3e
000000c0: f10f 903d b0da 7d3d 16bc 08be fc2a 713e
000000d0: 9ec0 2f3b 9fd6 27be b426 f1bd 5fe4 353e
000000e0: c0d6 2fbe ab3e 0ebd 8fb9 1b3b 703c 79bd
000000f0: 34c6 833e 4313 843e adfa 6f3e d061 3d3e
00000100: bc2e 933b 1162 c23e b4a9 24be 3151 863e
00000110: 38dd 0b3e 1755 ae3d 9f0f e5bc e7f8 c4bd
00000120: 042a 863d 8100 7f3e 6924 973c 933d 043f
00000130: c873 143d 98c4 9dbe b868 adbd 4ce7 813d
00000140: 2b76 8dbe 3a71 66bf b0cf 91bc ef46 98bc
00000150: b52b 473f 9471 15bf 1bf5 b3be 39f9 e8bd
00000160: 933f 21bf e34f b8bd 23e9 b2be 81a2 a6bd
00000170: be3c 89be f653 1dbf fe69 33bf e66b 08bf
00000180: 7331 68be 5436 023e 92ec d4be ebbe d3bd
00000190: f01f 76be be98 05be ed78 23bc 1cee 17be
000001a0: ebb5 95be d3b7 93be fc22 903d 42e7 153e
000001b0: 6b69 2ebd cb38 89bd cbea 283f 3355 7f3c
000001c0: 395d 86be 88d6 0a3e e957 8a3e 9a3a 8dbe
000001d0: 47d0 2a3d 2203 fb3e fdee a5bd 909d a4be
000001e0: 1d1f cdbe f689 2a3f 5b01 8cbd fd4d 97be
000001f0: d0a7 aebe c173 9f3e ad2a 1ebe 3308 5d3c
00000200: 25ac 013e ccc4 dbbd a72e f33e d731 efbd
00000210: 3905 233c e013 1b3f b36c d43e 2ad5 4a3e
00000220: 1867 103e 8488 87bd 1db1 573e b5fb 23bd
00000230: 2d6a c7bb 0e31 36bd 5a86 e5bd caaa 27bd
00000240: bcde 6cbe 5868 babd a61d a3be 107b f0bd
00000250: d75f a6bc 4904 88be 9686 b0be 33d8 bb3d
00000260: 50cb e3bc caee 00bd d781 7e3c a25b 90be
00000270: 25e2 9fbd ce33 013f 175b b03d 1a5b 293e
00000280: ca12 3f3e 0637 72be 9116 b0ba 6878 263e
00000290: bd29 d53e 5b82 88bd 91c2 4ebe 998b c13d
000002a0: 9c8d a5be a7a5 5dbe c955 29bf 954a fd3d
000002b0: 17a7 123c 96b7 44bf 3266 fcbe f4c9 b2be
000002c0: 2691 503e 0dda cebd ee34 9fbf 0de1 1cbe
000002d0: d970 da3e 4a84 9a3e aea2 1abc 2a18 d33d
000002e0: 671a edbd d55c 86bd e79f ad3d e8fd ae3e
000002f0: 8eda 073e 9c13 ca3e 9118 5fbe 24a6 6e3d
00000300: c913 c13d 563d 99bd a4b4 1f3d bec6 c63d
00000310: 81e3 d13e 54be 663c 98e5 b63d db20 7c3e
00000320: d73d 27bd dd64 eb3e 2395 503e 65b8 44be
00000330: 8946 55be 9a71 cc3e f7ba 103e d570 b3bd
00000340: ba79 673e a782 143e d60c 843e 393d 183e
00000350: e7fc 10be ac87 643d 5c1c 893e bd26 273f
00000360: 67c5 333e b8f5 d8bd e25e 783e 56eb 53be
00000370: a36c b33e c2cf 743e f5a5 e4b9 6879 4b3e
00000380: e8f6 08bd eda9 103f 9acd 2f3c 6177 4f3e
00000390: da4b c23e 76c4 cd3d f046 403e dcca d03e
000003a0: 6298 54be d3e7 003f 8654 cabd 5ac1 893e
000003b0: 0d40 4e3e 3215 cfbc dcab 4dbe a619 c93d
000003c0: 777a 82bd 746f 5f3e 4723 633e 6a7b d2bd
000003d0: f4dc 2f3d 09e1 4d3e 69b0 923e f3b4 9bbd
000003e0: 7ce4 b7be 7b23 a03d 3eaf 493e a549 5a3e
000003f0: 9a18 b4be b7f7 cd3e 9ef5 f13e 0897 54bd
0.2966908 -0.37975657 -0.38330102 0.095428996 0.5569755 -0.6180901 -0.17066702 -0.27768075
-0.52531356 -0.11273911 -0.052656487 -0.3717235 -0.34175667 -0.19503094 0.007888827 -0.43166688
-0.33873978 0.2225704 0.22106244 -0.010070953 -0.058417916 -0.040902663 0.07448516 -0.2248197
-0.27176732 0.39813718 0.101017326 -0.1131815 0.35892928 -0.143942 0.17307264 -0.32298672
0.048947807 0.050008565 0.10820031 0.3520872 0.04752502 -0.24845584 0.31040165 0.1030623
-0.09194881 0.010363688 0.3447457 -0.014735711 -0.21188064 0.28953415 0.19113904 0.21824715
0.070342906 0.061976135 -0.13352999 0.23551553 0.002681769 -0.16390465 -0.1177496 0.17762898
-0.17171764 -0.034727734 0.0023761725 -0.060848653 0.25737154 0.25795946 0.23435469 0.18494344
0.004491655 0.37965444 -0.16080362 0.2623382 0.13658607 0.08512323 -0.02796155 -0.09617787
0.065509826 0.24902536 0.018449979 0.51656455 0.03624323 -0.30814052 -0.08467239 0.063429445
-0.27629218 -0.9001652 -0.017799228 -0.018588511 0.77801067 -0.5837643 -0.35147938 -0.113756604
-0.6298763 -0.08999612 -0.34943494 -0.08136464 -0.26804155 -0.6145624 -0.70083606 -0.5328964
-0.22675113 0.12716037 -0.4158674 -0.10339149 -0.2403562 -0.13046548 -0.009977561 -0.14836925
-0.29240355 -0.28851184 0.07037923 0.14638999 -0.042581003 -0.067002855 0.65983266 0.015584278
-0.26242998 0.135584 0.27020195 -0.27583772 0.041702535 0.49025828 -0.08102224 -0.3215146
-0.400628 0.6661676 -0.06836196 -0.29551688 -0.34112406 0.31143 -0.15445967 0.013490724
0.12663324 -0.107308954 0.4749653 -0.11679428 0.009949976 0.605772 0.4148918 0.19807878
0.14101827 -0.06617835 0.21063657 -0.04003497 -0.006085655 -0.044480376 -0.11207266 -0.04093436
-0.23131841 -0.09101933 -0.31858557 -0.11742222 -0.020309372 -0.2656577 -0.3447768 0.09172096
-0.027806908 -0.031477727 0.015533886 -0.2819491 -0.078068055 0.5046967 0.08611124 0.16538659
0.18659511 -0.23653802 -0.001343446 0.16256869 0.41633406 -0.06665488 -0.20191409 0.09450454
-0.32334602 -0.21645223 -0.6614652 0.12367741 0.00895097 -0.7684263 -0.4929672 -0.34919703
0.2036787 -0.10100184 -1.2438028 -0.15320225 0.4266422 0.30179054 -0.0094382 0.10307343
-0.115773015 -0.06560675 0.084777646 0.3417809 0.13266966 0.39468086 -0.21786715 0.058263913
0.09427602 -0.07482402 0.03899063 0.09705876 0.40993884 0.014083464 0.0893051 0.24621908
-0.04083046 0.4597539 0.20369391 -0.19210966 -0.20827688 0.3993042 0.14133821 -0.087617554
0.22605029 0.14502965 0.25791043 0.14867105 -0.14158975 0.05579345 0.2677945 0.65293485
0.17555772 -0.10593742 0.24254945 -0.20695242 0.3504382 0.23907378 -0.00043611196 0.19870532
-0.033438593 0.56509286 0.010730172 0.20260383 0.37948495 0.100472376 0.1877706 0.4077977
-0.20761254 0.50353736 -0.09879403 0.26905328 0.20141621 -0.025278661 -0.2008509 0.09819345
-0.063710146 0.2181986 0.22181426 -0.102774456 0.042935327 0.20105375 0.28650215 -0.07602873
-0.35916507 0.07819267 0.19695756 0.21317156 -0.3517502 0.40228054 0.47257704 -0.051901847

embedder.emb_rnn.weight_hh_l2 f4 [60, 20]
00000000: 71d4 e83d 2f1f c4bb b7cf 33be b3bf 62be
00000010: 606e a63d dd96 ccbe 6e9f 3abe a240 98be
00000020: 73db bcbd 84c8 d73a 4857 123e 4ece 2bbe
00000030: cdc8 57be 0e89 17be 4813 c9bd d3d2 0abe
00000040: 519d 553d fe02 dbbc 9119 0a3e 164a 55be
00000050: e7a5 7abe fbca 6cbe cb42 66be 32a7 0dbe
00000060: 651e 883e 2c90 a8bd 3a89 1fbe 41e3 393e
00000070: a234 75be 247f 903e 5f6b 653d 4456 f53a
00000080: 775a f5bd 5825 55be 9fa0 48be 60d8 b3be
00000090: b23b 30be d2d3 97be 3dfd bb3e 4e13 c53d
000000a0: babf 8f3d 264d d33d 75ec 723e a815 bc3d
000000b0: aaff 65be 6657 32be 231d 3ebd 8f25 523d
000000c0: 5771 3e3e 9010 76ba 90e1 89bc a69d 533e
000000d0: 45fc 08be ff1d 0d3e e9d2 7f3d 448d b43d
000000e0: a214 593e 3193 9f3c d7f6 3a3d ec0e ca3d
000000f0: 3f9a 213e 78a9 523d f1f2 273d b3c9 393d
00000100: c1e3 fc3d a99a 193e 25d0 56bd aabb 52be
00000110: db32 03bd 19a1 a93e 83a3 d43e d9a5 0bbe
00000120: 8e2d 73be 2994 763e 5f1e 2e3e 467a 9e3d
00000130: a761 2ebc 7213 07be 8048 023f 6bbc e4bb
00000140: b5f5 2bbe a088 c33d 8029 2fbd 27b9 4dbe
00000150: 30be 033e bf54 1cbe dc6c ccbe 8c6f 67bc
00000160: 75e3 f73c 0241 01be 8edd 9cbe af1b e1bd
00000170: e8be 21be af24 d8be 0da7 943c b60d 663c
00000180: 25dd d23c 6b18 13be 8d9b d0bd f4d1 28bf
00000190: 3432 1f3f d92b a83d 9c0b 6c3e 7189 743d
000001a0: a67f 1c3e 7f29 a1bd 22c9 063e 2c09 463e
000001b0: 559e 153e e91b 4f3e d870 d3be 1068 a73e
000001c0: 65e0 1e3d 5d38 593e 1606 c73c f9e0 ed3e
000001d0: 075d 13bd 571e 56bd b547 17be b42f e03d
000001e0: bf37 16bd 56a4 983d b5ca 40be 2231 10be
000001f0: 9c44 c03d 7ab9 73bd d145 66bc 524d 013e
00000200: a585 ac3d ab04 62be d00b dabd 3518 3ebe
00000210: 482d 6ebe 8f2c 21be 4853 4fbe 9cc5 513e
00000220: ce2e 81bd b859 06bd 1e85 18be 1ebb 0ebe
00000230: 752f 7ebe 5f80 20be d41e 4cbe 3c04 66bd
00000240: 42c1 583e 60c8 a7be a855 fcbc 896d e23d
00000250: 7fd9 b1bd 1d36 38be 8324 023f f4c5 9ebe
00000260: 664a 1fbe 0d2e 2fbe b3c0 aa3d f1d0 6dbe
00000270: 4e68 eabd 3575 753e c095 8a3e 1084 fcbd
00000280: 8cbb 0abd 40f9 a7bd 8729 9ebd 378f 293d
00000290: 4a0e bf3e b4bb 55bd 5764 3cbd f1cc 103e
000002a0: 7baf 843e 8393 d3bd 79ea 013d 5a71 243e
000002b0: d3c3 ba3d e720 dd3d 9ab5 023e 8357 2ebe
000002c0: eab8 bd3d 4e0c 253e 8026 9ebd 5178 123e
000002d0: 628e ee3c f015 5d3e 0fc8 5abd d99f 853e
000002e0: a83b 1f3e d5d9 c43d 83b5 113e 6618 4b3e
000002f0: f6f5 07bd 6854 9cbd a3c8 f03d af5b 91ba
00000300: ea5b da3d dcad b33e 01c7 7a3c 9fca 033e
00000310: a35e 2b3e 405f 193e 8247 a73e 8ba5 8abd
00000320: dd4a a5bd 5309 5dbe e9b5 36bb d32b 84bd
00000330: 3bef d33e bbc1 c1be 771d 87be 39e0 df3d
00000340: f8ed 2b3e cf34 2c3d afdf 59be 979a 153e
00000350: ae10 9bbe 46fb b73d 4eab a2bc fb3c 45bd
00000360: 1b0f 54bd 1f97 573c bf90 493d 129a 5abe
00000370: c2aa c03a 5719 633e 6627 ed3d d814 9ebc
00000380: 1110 cabc a4ab 68bd c3b7 80be ed14 923e
00000390: ad28 91bd af54 0a3e 9acb 1c3c 7dc8 693e
000003a0: 5ad1 fc3e a3af 693e f245 413e a442 283e
000003b0: 461d 2f3e 05cc 393e 2897 633e ecd3 2d3e
000003c0: 07b8 a13d ec03 193e 8fef b5bd e98d 9c3d
000003d0: 0157 783d 5b44 743d 8f64 2fbe 1d9e 273e
000003e0: d8a6 193e cffd 3d3d 18fe a1bc 79e2 26bd
000003f0: 6a55 3e3d 56a1 a33c 924f 6d3e 54a1 25be
0.11368645 -0.0059851627 -0.17559706 -0.2214344 0.08126521 -0.3995885 -0.1822488 -0.2973681
-0.09221544 0.0016462957 0.14291108 -0.16777918 -0.21072693 -0.14798376 -0.09818131 -0.13556986
0.05215198 -0.026734825 0.13486315 -0.20829043 -0.24477349 -0.23124306 -0.22486417 -0.13833311
0.2658569 -0.082306236 -0.15579692 0.18153097 -0.23945859 0.28222 0.0560106 0.0018717726
-0.119801454 -0.20815027 -0.19592522 -0.3512602 -0.17210272 -0.29653794 0.36716643 0.09622823
0.07018991 0.10317449 0.23723014 0.09183818 -0.2246081 -0.17416152 -0.046414506 0.05130535
0.18597923 -0.0009386623 -0.01683119 0.20665607 -0.13377483 0.13780974 0.062457 0.08816007
0.21199277 0.019479366 0.04564556 0.09866127 0.15781496 0.05143115 0.04100317 0.04535837
0.12348128 0.15000404 -0.052444596 -0.205794 -0.03203092 0.3313072 0.41531 -0.13637485
-0.23747846 0.24079956 0.17003773 0.077381656 -0.010643399 -0.13191012 0.50891876 -0.006980469
-0.16792949 0.095475435 -0.042764187 -0.20090161 0.1286552 -0.15266703 -0.39926803 -0.014125716
0.030259827 -0.12622455 -0.30637783 -0.10991608 -0.15795481 -0.42215487 0.018146062 0.014041355
0.025740216 -0.14364783 -0.10185919 -0.65945363 0.6218598 0.08211488 0.23051304 0.059701387
0.15283069 -0.07869243 0.13162664 0.19339436 0.1461118 0.2022549 -0.4129703 0.3269658
0.038788218 0.21212907 0.024294894 0.46460703 -0.03597739 -0.052275028 -0.14773448 0.10946599
-0.036674257 0.074532196 -0.18827327 -0.14081243 0.09388086 -0.059503056 -0.0140547315 0.12627152
0.08423928 -0.22072093 -0.10646784 -0.18563922 -0.23259461 -0.15739654 -0.20246613 0.20485538
-0.063077554 -0.032800406 -0.1489453 -0.13938567 -0.24822791 -0.1567397 -0.19933635 -0.056156382
0.21167472 -0.32770061 -0.030802563 0.110560484 -0.08684062 -0.17989393 0.5083696 -0.310104
-0.15555725 -0.1710741 0.08337536 -0.23224236 -0.11445676 0.23970492 0.27067375 -0.123298764
-0.033870265 -0.082018375 -0.077227645 0.041396346 0.3731559 -0.05218096 -0.04599413 0.14140679
0.2591513 -0.1033087 0.03171775 0.16058865 0.09119382 0.10797291 0.12764588 -0.1702557
0.09263785 0.16117975 -0.07722187 0.1430371 0.029120628 0.215904 -0.053413447 0.26098517
0.15550101 0.09611861 0.14229397 0.19833526 -0.03319355 -0.07633287 0.117570184 -0.0011089946
0.106620625 0.35093582 0.015306235 0.12870263 0.1673532 0.14977741 0.32671744 -0.06769856
-0.0807092 -0.21585588 -0.0027879423 -0.06453671 0.41393456 -0.37843117 -0.26389667 0.10931439
0.16789997 0.04204255 -0.21276735 0.14609753 -0.30286163 0.089834735 -0.019857075 -0.04815386
-0.05177222 0.013158589 0.049210306 -0.21347836 0.0014699327 0.22177635 0.1157978 -0.019297048
-0.024665864 -0.056804314 -0.251402 0.2853159 -0.070878364 0.13508867 0.009570027 0.22830386
0.49378473 0.22820906 0.18874338 0.16431671 0.1710101 0.18144234 0.2222563 0.16975373
0.078964286 0.14942902 -0.08883583 0.07644255 0.06062985 0.0596355 -0.17128204 0.16368909
0.15005052 0.04638463 -0.019774482 -0.040743325 0.046468176 0.019974392 0.23174885 -0.16174823

embedder.emb_rnn.bias_ih_l2 f4 [60]
00000000: 3d61 573f 8006 7f3f 968c 8b3f 8aad 8b3f
00000010: 3a88 5a3f aa0a 573f 89a6 633f 3b0c 623f
00000020: 0f05 853f 7cf6 9a3f 9d3f 793f 2ab9 913f
00000030: 059b 8c3f a7c9 783f acb1 903f eb48 613f
00000040: 2437 9c3f c8e6 863f c1c9 673f 04db 3b3f
00000050: acb2 393e ac1c 343f 4877 6a3f 513c 473f
00000060: ebdb 513e 446f 943e 2291 563f 3fe5 0d3f
00000070: bb16 5c3f 4a8a 373f c197 8e3e 9074 803f
00000080: 2161 563f f35d 513f 1be7 f13e 2e05 5e3f
00000090: c169 a13e 8ca2 be3e 7585 0e3f 03a6 883f
000000a0: 6b75 843f bbe1 943f e41a 873f bd06 973f
000000b0: 630d 423f a770 743f 6508 693f a9bd 813f
000000c0: 78c6 6b3f eb13 a23f 7cfb 413f 9068 8b3f
000000d0: 0e2c 8d3f fb08 823f 3152 a53f 1ccd 333f
000000e0: 414e b73f 204b 753f 8760 533f 458f 503f
0.8413275 0.99619293 1.0902278 1.0912335 0.85364115 0.8400065 0.8892599 0.8829991
1.0392169 1.2106471 0.9736269 1.1384633 1.0984808 0.971827 1.1304221 0.8800189
1.2204328 1.0539179 0.9054223 0.73381066 0.18134564 0.7035625 0.9158826 0.7782641
0.20494048 0.2899114 0.83815205 0.55427927 0.85972184 0.7169539 0.27850154 1.0035572
0.83741957 0.8178398 0.47246632 0.86726654 0.31525996 0.37233388 0.5567239 1.0675663
1.0348333 1.1631387 1.0555081 1.1798931 0.75801677 0.95484394 0.91028434 1.0136005
0.92099714 1.2662328 0.7577436 1.0891285 1.102907 1.0158991 1.2915708 0.7023485
1.4320756 0.95817757 0.82569164 0.8146861

embedder.emb_rnn.bias_hh_l2 f4 [60]
00000000: 3d61 573f 8006 7f3f 968c 8b3f 8aad 8b3f
00000010: 3a88 5a3f aa0a 573f 89a6 633f 3b0c 623f
00000020: 0f05 853f 7cf6 9a3f 9d3f 793f 2ab9 913f
00000030: 059b 8c3f a7c9 783f acb1 903f eb48 613f
00000040: 2437 9c3f c8e6 863f c1c9 673f 04db 3b3f
00000050: acb2 393e ac1c 343f 4877 6a3f 513c 473f
00000060: ebdb 513e 446f 943e 2291 563f 3fe5 0d3f
00000070: bb16 5c3f 4a8a 373f c197 8e3e 9074 803f
00000080: 2161 563f f35d 513f 1be7 f13e 2e05 5e3f
00000090: c169 a13e 8ca2 be3e 7585 0e3f 03a6 883f
000000a0: af00 673f 0a8b 9f3f 459f 873f 97f2 963f
000000b0: d30e 903f c504 813f 9b56 753f 3e65 703f
000000c0: 56d3 bd3f b71b a23f 24e6 303f b3fb 903f
000000d0: 3def 8f3f b759 813f 0c6a a73f c4ab 6b3f
000000e0: c024 b93f 14b1 9a3f acde 9b3f 2e07 753f
0.8413275 0.99619293 1.0902278 1.0912335 0.85364115 0.8400065 0.8892599 0.8829991
1.0392169 1.2106471 0.9736269 1.1384633 1.0984808 0.971827 1.1304221 0.8800189
1.2204328 1.0539179 0.9054223 0.73381066 0.18134564 0.7035625 0.9158826 0.7782641
0.20494048 0.2899114 0.83815205 0.55427927 0.85972184 0.7169539 0.27850154 1.0035572
0.83741957 0.8178398 0.47246632 0.86726654 0.31525996 0.37233388 0.5567239 1.0675663
0.9023542 1.2464306 1.059548 1.1792783 1.1254524 1.007958 0.95835274 0.93904483
1.483012 1.2664708 0.69101167 1.1326813 1.1244885 1.0105504 1.3079238 0.9205897
1.446434 1.208529 1.2177329 0.9571408
